…
I0704 17:21:13.869868 18036 net.cpp:294] The NetState phase (0) differed from the phase (1) specified by a rule in layer accuracy
I0704 17:21:13.869962 18036 net.cpp:51] Initializing net from parameters: 
name: "C3DNet"
state {
  phase: TRAIN
  level: 0
  stage: ""
}
layer {
  name: "data"
  type: "Data"
  top: "data"
  top: "label"
  include {
    phase: TRAIN
  }
  transform_param {
    mirror: false
    mean_file: "mean_c3d.binaryproto"
  }
  data_param {
    source: "/home/hadoop/VisionWorkspace/ActivityNet/new_lmdb/train_c3d_lmdb"
    batch_size: 64
    backend: LMDB
  }
}
layer {
  name: "fc1"
  type: "InnerProduct"
  bottom: "data"
  top: "fc1"
  param {
    lr_mult: 1
  }
  param {
    lr_mult: 2
    decay_mult: 0
  }
  inner_product_param {
    num_output: 1024
    weight_filler {
      type: "xavier"
    }
    bias_filler {
      type: "constant"
    }
  }
}
layer {
  name: "relu1"
  type: "ReLU"
  bottom: "fc1"
  top: "fc1"
}
layer {
  name: "drop1"
  type: "Dropout"
  bottom: "fc1"
  top: "fc1"
  dropout_param {
    dropout_ratio: 0.5
  }
}
layer {
  name: "fc2"
  type: "InnerProduct"
  bottom: "fc1"
  top: "fc2"
  param {
    lr_mult: 1
  }
  param {
    lr_mult: 2
  }
  inner_product_param {
    num_output: 1024
    weight_filler {
      type: "xavier"
    }
    bias_filler {
      type: "constant"
    }
  }
}
layer {
  name: "relu2"
  type: "ReLU"
  bottom: "fc2"
  top: "fc2"
}
layer {
  name: "drop2"
  type: "Dropout"
  bottom: "fc2"
  top: "fc2"
  dropout_param {
    dropout_ratio: 0.5
  }
}
layer {
  name: "fc3"
  type: "InnerProduct"
  bottom: "fc2"
  top: "fc3"
  param {
    lr_mult: 1
  }
  param {
    lr_mult: 2
  }
  inner_product_param {
    num_output: 200
    weight_filler {
      type: "xavier"
    }
    bias_filler {
      type: "constant"
    }
  }
}
layer {
  name: "loss"
  type: "SoftmaxWithLoss"
  bottom: "fc3"
  bottom: "label"
  top: "loss"
}
I0704 17:21:13.870051 18036 layer_factory.hpp:77] Creating layer data
I0704 17:21:13.888615 18036 db_lmdb.cpp:35] Opened lmdb /home/hadoop/VisionWorkspace/ActivityNet/new_lmdb/train_c3d_lmdb
I0704 17:21:13.888669 18036 net.cpp:84] Creating Layer data
I0704 17:21:13.888695 18036 net.cpp:380] data -> data
I0704 17:21:13.888772 18036 net.cpp:380] data -> label
I0704 17:21:13.888797 18036 data_transformer.cpp:25] Loading mean file from: mean_c3d.binaryproto
I0704 17:21:13.889690 18036 data_layer.cpp:45] output data size: 64,500,1,1
I0704 17:21:13.890940 18036 net.cpp:122] Setting up data
I0704 17:21:13.890964 18036 net.cpp:129] Top shape: 64 500 1 1 (32000)
I0704 17:21:13.890974 18036 net.cpp:129] Top shape: 64 (64)
I0704 17:21:13.890980 18036 net.cpp:137] Memory required for data: 128256
I0704 17:21:13.890990 18036 layer_factory.hpp:77] Creating layer fc1
I0704 17:21:13.891013 18036 net.cpp:84] Creating Layer fc1
I0704 17:21:13.891047 18036 net.cpp:406] fc1 <- data
I0704 17:21:13.891089 18036 net.cpp:380] fc1 -> fc1
I0704 17:21:13.894909 18036 net.cpp:122] Setting up fc1
I0704 17:21:13.894932 18036 net.cpp:129] Top shape: 64 1024 (65536)
I0704 17:21:13.894938 18036 net.cpp:137] Memory required for data: 390400
I0704 17:21:13.894958 18036 layer_factory.hpp:77] Creating layer relu1
I0704 17:21:13.894990 18036 net.cpp:84] Creating Layer relu1
I0704 17:21:13.895030 18036 net.cpp:406] relu1 <- fc1
I0704 17:21:13.895056 18036 net.cpp:367] relu1 -> fc1 (in-place)
I0704 17:21:14.143132 18036 net.cpp:122] Setting up relu1
I0704 17:21:14.143177 18036 net.cpp:129] Top shape: 64 1024 (65536)
I0704 17:21:14.143185 18036 net.cpp:137] Memory required for data: 652544
I0704 17:21:14.143194 18036 layer_factory.hpp:77] Creating layer drop1
I0704 17:21:14.143210 18036 net.cpp:84] Creating Layer drop1
I0704 17:21:14.143218 18036 net.cpp:406] drop1 <- fc1
I0704 17:21:14.143227 18036 net.cpp:367] drop1 -> fc1 (in-place)
I0704 17:21:14.143296 18036 net.cpp:122] Setting up drop1
I0704 17:21:14.143311 18036 net.cpp:129] Top shape: 64 1024 (65536)
I0704 17:21:14.143316 18036 net.cpp:137] Memory required for data: 914688
I0704 17:21:14.143322 18036 layer_factory.hpp:77] Creating layer fc2
I0704 17:21:14.143337 18036 net.cpp:84] Creating Layer fc2
I0704 17:21:14.143345 18036 net.cpp:406] fc2 <- fc1
I0704 17:21:14.143354 18036 net.cpp:380] fc2 -> fc2
I0704 17:21:14.150557 18036 net.cpp:122] Setting up fc2
I0704 17:21:14.150585 18036 net.cpp:129] Top shape: 64 1024 (65536)
I0704 17:21:14.150600 18036 net.cpp:137] Memory required for data: 1176832
I0704 17:21:14.150616 18036 layer_factory.hpp:77] Creating layer relu2
I0704 17:21:14.150627 18036 net.cpp:84] Creating Layer relu2
I0704 17:21:14.150634 18036 net.cpp:406] relu2 <- fc2
I0704 17:21:14.150641 18036 net.cpp:367] relu2 -> fc2 (in-place)
I0704 17:21:14.151007 18036 net.cpp:122] Setting up relu2
I0704 17:21:14.151021 18036 net.cpp:129] Top shape: 64 1024 (65536)
I0704 17:21:14.151026 18036 net.cpp:137] Memory required for data: 1438976
I0704 17:21:14.151041 18036 layer_factory.hpp:77] Creating layer drop2
I0704 17:21:14.151049 18036 net.cpp:84] Creating Layer drop2
I0704 17:21:14.151056 18036 net.cpp:406] drop2 <- fc2
I0704 17:21:14.151062 18036 net.cpp:367] drop2 -> fc2 (in-place)
I0704 17:21:14.151108 18036 net.cpp:122] Setting up drop2
I0704 17:21:14.151119 18036 net.cpp:129] Top shape: 64 1024 (65536)
I0704 17:21:14.151125 18036 net.cpp:137] Memory required for data: 1701120
I0704 17:21:14.151131 18036 layer_factory.hpp:77] Creating layer fc3
I0704 17:21:14.151141 18036 net.cpp:84] Creating Layer fc3
I0704 17:21:14.151147 18036 net.cpp:406] fc3 <- fc2
I0704 17:21:14.151172 18036 net.cpp:380] fc3 -> fc3
I0704 17:21:14.152829 18036 net.cpp:122] Setting up fc3
I0704 17:21:14.152845 18036 net.cpp:129] Top shape: 64 200 (12800)
I0704 17:21:14.152851 18036 net.cpp:137] Memory required for data: 1752320
I0704 17:21:14.152863 18036 layer_factory.hpp:77] Creating layer loss
I0704 17:21:14.152878 18036 net.cpp:84] Creating Layer loss
I0704 17:21:14.152884 18036 net.cpp:406] loss <- fc3
I0704 17:21:14.152899 18036 net.cpp:406] loss <- label
I0704 17:21:14.152920 18036 net.cpp:380] loss -> loss
I0704 17:21:14.152937 18036 layer_factory.hpp:77] Creating layer loss
…
I0704 17:21:14.154249 18036 solver.cpp:173] Creating test net (#0) specified by net file: /home/hadoop/VisionWorkspace/ActivityNet/ActivityNet-master/caffe_models/c3d_fc_net.prototxt
I0704 17:21:14.154302 18036 net.cpp:294] The NetState phase (1) differed from the phase (0) specified by a rule in layer data
I0704 17:21:14.154399 18036 net.cpp:51] Initializing net from parameters: 
name: "C3DNet"
state {
  phase: TEST
}
layer {
  name: "data"
  type: "Data"
  top: "data"
  top: "label"
  include {
    phase: TEST
  }
  transform_param {
    mirror: false
    mean_file: "mean_c3d.binaryproto"
  }
  data_param {
    source: "/home/hadoop/VisionWorkspace/ActivityNet/new_lmdb/val_c3d_lmdb"
    batch_size: 50
    backend: LMDB
  }
}
layer {
  name: "fc1"
  type: "InnerProduct"
  bottom: "data"
  top: "fc1"
  param {
    lr_mult: 1
  }
  param {
    lr_mult: 2
    decay_mult: 0
  }
  inner_product_param {
    num_output: 1024
    weight_filler {
      type: "xavier"
    }
    bias_filler {
      type: "constant"
    }
  }
}
layer {
  name: "relu1"
  type: "ReLU"
  bottom: "fc1"
  top: "fc1"
}
layer {
  name: "drop1"
  type: "Dropout"
  bottom: "fc1"
  top: "fc1"
  dropout_param {
    dropout_ratio: 0.5
  }
}
layer {
  name: "fc2"
  type: "InnerProduct"
  bottom: "fc1"
  top: "fc2"
  param {
    lr_mult: 1
  }
  param {
    lr_mult: 2
  }
  inner_product_param {
    num_output: 1024
    weight_filler {
      type: "xavier"
    }
    bias_filler {
      type: "constant"
    }
  }
}
layer {
  name: "relu2"
  type: "ReLU"
  bottom: "fc2"
  top: "fc2"
}
layer {
  name: "drop2"
  type: "Dropout"
  bottom: "fc2"
  top: "fc2"
  dropout_param {
    dropout_ratio: 0.5
  }
}
layer {
  name: "fc3"
  type: "InnerProduct"
  bottom: "fc2"
  top: "fc3"
  param {
    lr_mult: 1
  }
  param {
    lr_mult: 2
  }
  inner_product_param {
    num_output: 200
    weight_filler {
      type: "xavier"
    }
    bias_filler {
      type: "constant"
    }
  }
}
layer {
  name: "accuracy"
  type: "Accuracy"
  bottom: "fc3"
  bottom: "label"
  top: "accuracy"
  include {
    phase: TEST
  }
}
layer {
  name: "loss"
  type: "SoftmaxWithLoss"
  bottom: "fc3"
  bottom: "label"
  top: "loss"
}
I0704 17:21:14.154467 18036 layer_factory.hpp:77] Creating layer data
I0704 17:21:14.195423 18036 db_lmdb.cpp:35] Opened lmdb /home/hadoop/VisionWorkspace/ActivityNet/new_lmdb/val_c3d_lmdb
I0704 17:21:14.195473 18036 net.cpp:84] Creating Layer data
I0704 17:21:14.195490 18036 net.cpp:380] data -> data
I0704 17:21:14.195508 18036 net.cpp:380] data -> label
I0704 17:21:14.195538 18036 data_transformer.cpp:25] Loading mean file from: mean_c3d.binaryproto
I0704 17:21:14.195775 18036 data_layer.cpp:45] output data size: 50,500,1,1
I0704 17:21:14.196295 18036 net.cpp:122] Setting up data
I0704 17:21:14.196329 18036 net.cpp:129] Top shape: 50 500 1 1 (25000)
I0704 17:21:14.196337 18036 net.cpp:129] Top shape: 50 (50)
I0704 17:21:14.196343 18036 net.cpp:137] Memory required for data: 100200
I0704 17:21:14.196351 18036 layer_factory.hpp:77] Creating layer label_data_1_split
I0704 17:21:14.196372 18036 net.cpp:84] Creating Layer label_data_1_split
I0704 17:21:14.196403 18036 net.cpp:406] label_data_1_split <- label
I0704 17:21:14.196434 18036 net.cpp:380] label_data_1_split -> label_data_1_split_0
I0704 17:21:14.196476 18036 net.cpp:380] label_data_1_split -> label_data_1_split_1
I0704 17:21:14.196547 18036 net.cpp:122] Setting up label_data_1_split
I0704 17:21:14.196569 18036 net.cpp:129] Top shape: 50 (50)
I0704 17:21:14.196578 18036 net.cpp:129] Top shape: 50 (50)
I0704 17:21:14.196583 18036 net.cpp:137] Memory required for data: 100600
I0704 17:21:14.196588 18036 layer_factory.hpp:77] Creating layer fc1
I0704 17:21:14.196600 18036 net.cpp:84] Creating Layer fc1
I0704 17:21:14.196615 18036 net.cpp:406] fc1 <- data
I0704 17:21:14.196624 18036 net.cpp:380] fc1 -> fc1
I0704 17:21:14.200721 18036 net.cpp:122] Setting up fc1
I0704 17:21:14.200742 18036 net.cpp:129] Top shape: 50 1024 (51200)
I0704 17:21:14.200757 18036 net.cpp:137] Memory required for data: 305400
I0704 17:21:14.200770 18036 layer_factory.hpp:77] Creating layer relu1
I0704 17:21:14.200819 18036 net.cpp:84] Creating Layer relu1
I0704 17:21:14.200827 18036 net.cpp:406] relu1 <- fc1
I0704 17:21:14.200835 18036 net.cpp:367] relu1 -> fc1 (in-place)
I0704 17:21:14.201045 18036 net.cpp:122] Setting up relu1
I0704 17:21:14.201057 18036 net.cpp:129] Top shape: 50 1024 (51200)
I0704 17:21:14.201062 18036 net.cpp:137] Memory required for data: 510200
I0704 17:21:14.201076 18036 layer_factory.hpp:77] Creating layer drop1
I0704 17:21:14.201086 18036 net.cpp:84] Creating Layer drop1
I0704 17:21:14.201092 18036 net.cpp:406] drop1 <- fc1
I0704 17:21:14.201107 18036 net.cpp:367] drop1 -> fc1 (in-place)
I0704 17:21:14.201146 18036 net.cpp:122] Setting up drop1
I0704 17:21:14.201160 18036 net.cpp:129] Top shape: 50 1024 (51200)
I0704 17:21:14.201166 18036 net.cpp:137] Memory required for data: 715000
I0704 17:21:14.201172 18036 layer_factory.hpp:77] Creating layer fc2
I0704 17:21:14.201182 18036 net.cpp:84] Creating Layer fc2
I0704 17:21:14.201189 18036 net.cpp:406] fc2 <- fc1
I0704 17:21:14.201196 18036 net.cpp:380] fc2 -> fc2
I0704 17:21:14.209290 18036 net.cpp:122] Setting up fc2
I0704 17:21:14.209324 18036 net.cpp:129] Top shape: 50 1024 (51200)
I0704 17:21:14.209331 18036 net.cpp:137] Memory required for data: 919800
I0704 17:21:14.209348 18036 layer_factory.hpp:77] Creating layer relu2
I0704 17:21:14.209360 18036 net.cpp:84] Creating Layer relu2
I0704 17:21:14.209367 18036 net.cpp:406] relu2 <- fc2
I0704 17:21:14.209377 18036 net.cpp:367] relu2 -> fc2 (in-place)
I0704 17:21:14.209777 18036 net.cpp:122] Setting up relu2
I0704 17:21:14.209791 18036 net.cpp:129] Top shape: 50 1024 (51200)
I0704 17:21:14.209799 18036 net.cpp:137] Memory required for data: 1124600
I0704 17:21:14.209805 18036 layer_factory.hpp:77] Creating layer drop2
I0704 17:21:14.209813 18036 net.cpp:84] Creating Layer drop2
I0704 17:21:14.209820 18036 net.cpp:406] drop2 <- fc2
I0704 17:21:14.209827 18036 net.cpp:367] drop2 -> fc2 (in-place)
I0704 17:21:14.209868 18036 net.cpp:122] Setting up drop2
I0704 17:21:14.209882 18036 net.cpp:129] Top shape: 50 1024 (51200)
I0704 17:21:14.209887 18036 net.cpp:137] Memory required for data: 1329400
I0704 17:21:14.209893 18036 layer_factory.hpp:77] Creating layer fc3
I0704 17:21:14.209905 18036 net.cpp:84] Creating Layer fc3
I0704 17:21:14.209913 18036 net.cpp:406] fc3 <- fc2
I0704 17:21:14.209923 18036 net.cpp:380] fc3 -> fc3
I0704 17:21:14.211681 18036 net.cpp:122] Setting up fc3
I0704 17:21:14.211696 18036 net.cpp:129] Top shape: 50 200 (10000)
I0704 17:21:14.211702 18036 net.cpp:137] Memory required for data: 1369400
I0704 17:21:14.211714 18036 layer_factory.hpp:77] Creating layer fc3_fc3_0_split
I0704 17:21:14.211724 18036 net.cpp:84] Creating Layer fc3_fc3_0_split
I0704 17:21:14.211730 18036 net.cpp:406] fc3_fc3_0_split <- fc3
I0704 17:21:14.211736 18036 net.cpp:380] fc3_fc3_0_split -> fc3_fc3_0_split_0
I0704 17:21:14.211745 18036 net.cpp:380] fc3_fc3_0_split -> fc3_fc3_0_split_1
I0704 17:21:14.211796 18036 net.cpp:122] Setting up fc3_fc3_0_split
I0704 17:21:14.211807 18036 net.cpp:129] Top shape: 50 200 (10000)
I0704 17:21:14.211814 18036 net.cpp:129] Top shape: 50 200 (10000)
I0704 17:21:14.211819 18036 net.cpp:137] Memory required for data: 1449400
I0704 17:21:14.211834 18036 layer_factory.hpp:77] Creating layer accuracy
I0704 17:21:14.211856 18036 net.cpp:84] Creating Layer accuracy
I0704 17:21:14.211863 18036 net.cpp:406] accuracy <- fc3_fc3_0_split_0
I0704 17:21:14.211870 18036 net.cpp:406] accuracy <- label_data_1_split_0
I0704 17:21:14.211877 18036 net.cpp:380] accuracy -> accuracy
…
