…
I0705 03:34:47.269831  5429 net.cpp:294] The NetState phase (0) differed from the phase (1) specified by a rule in layer accuracy
I0705 03:34:47.269927  5429 net.cpp:51] Initializing net from parameters: 
name: "C3DNet"
state {
  phase: TRAIN
  level: 0
  stage: ""
}
layer {
  name: "data"
  type: "Data"
  top: "data"
  top: "label"
  include {
    phase: TRAIN
  }
  transform_param {
    mirror: false
    mean_file: "mean_c3d.binaryproto"
  }
  data_param {
    source: "/home/hadoop/VisionWorkspace/ActivityNet/new_lmdb/c3d_lmdb_4k_1k/train_c3d_lmdb"
    batch_size: 64
    backend: LMDB
  }
}
layer {
  name: "fc1"
  type: "InnerProduct"
  bottom: "data"
  top: "fc1"
  param {
    lr_mult: 1
  }
  param {
    lr_mult: 2
    decay_mult: 0
  }
  inner_product_param {
    num_output: 1024
    weight_filler {
      type: "xavier"
    }
    bias_filler {
      type: "constant"
    }
  }
}
layer {
  name: "relu1"
  type: "ReLU"
  bottom: "fc1"
  top: "fc1"
}
layer {
  name: "drop1"
  type: "Dropout"
  bottom: "fc1"
  top: "fc1"
  dropout_param {
    dropout_ratio: 0.5
  }
}
layer {
  name: "fc2"
  type: "InnerProduct"
  bottom: "fc1"
  top: "fc2"
  param {
    lr_mult: 1
  }
  param {
    lr_mult: 2
  }
  inner_product_param {
    num_output: 1024
    weight_filler {
      type: "xavier"
    }
    bias_filler {
      type: "constant"
    }
  }
}
layer {
  name: "relu2"
  type: "ReLU"
  bottom: "fc2"
  top: "fc2"
}
layer {
  name: "drop2"
  type: "Dropout"
  bottom: "fc2"
  top: "fc2"
  dropout_param {
    dropout_ratio: 0.5
  }
}
layer {
  name: "fc3"
  type: "InnerProduct"
  bottom: "fc2"
  top: "fc3"
  param {
    lr_mult: 1
  }
  param {
    lr_mult: 2
  }
  inner_product_param {
    num_output: 200
    weight_filler {
      type: "xavier"
    }
    bias_filler {
      type: "constant"
    }
  }
}
layer {
  name: "loss"
  type: "SoftmaxWithLoss"
  bottom: "fc3"
  bottom: "label"
  top: "loss"
}
I0705 03:34:47.269992  5429 layer_factory.hpp:77] Creating layer data
I0705 03:34:47.301954  5429 db_lmdb.cpp:35] Opened lmdb /home/hadoop/VisionWorkspace/ActivityNet/new_lmdb/c3d_lmdb_4k_1k/train_c3d_lmdb
I0705 03:34:47.302047  5429 net.cpp:84] Creating Layer data
I0705 03:34:47.302074  5429 net.cpp:380] data -> data
I0705 03:34:47.302166  5429 net.cpp:380] data -> label
I0705 03:34:47.302207  5429 data_transformer.cpp:25] Loading mean file from: mean_c3d.binaryproto
I0705 03:34:47.303809  5429 data_layer.cpp:45] output data size: 64,500,1,1
I0705 03:34:47.305627  5429 net.cpp:122] Setting up data
I0705 03:34:47.305658  5429 net.cpp:129] Top shape: 64 500 1 1 (32000)
I0705 03:34:47.305670  5429 net.cpp:129] Top shape: 64 (64)
I0705 03:34:47.305677  5429 net.cpp:137] Memory required for data: 128256
I0705 03:34:47.305697  5429 layer_factory.hpp:77] Creating layer fc1
I0705 03:34:47.305722  5429 net.cpp:84] Creating Layer fc1
I0705 03:34:47.305763  5429 net.cpp:406] fc1 <- data
I0705 03:34:47.305791  5429 net.cpp:380] fc1 -> fc1
I0705 03:34:47.309882  5429 net.cpp:122] Setting up fc1
I0705 03:34:47.309904  5429 net.cpp:129] Top shape: 64 1024 (65536)
I0705 03:34:47.309911  5429 net.cpp:137] Memory required for data: 390400
I0705 03:34:47.309952  5429 layer_factory.hpp:77] Creating layer relu1
I0705 03:34:47.309998  5429 net.cpp:84] Creating Layer relu1
I0705 03:34:47.310008  5429 net.cpp:406] relu1 <- fc1
I0705 03:34:47.310016  5429 net.cpp:367] relu1 -> fc1 (in-place)
I0705 03:34:47.671290  5429 net.cpp:122] Setting up relu1
I0705 03:34:47.671339  5429 net.cpp:129] Top shape: 64 1024 (65536)
I0705 03:34:47.671346  5429 net.cpp:137] Memory required for data: 652544
I0705 03:34:47.671355  5429 layer_factory.hpp:77] Creating layer drop1
I0705 03:34:47.671372  5429 net.cpp:84] Creating Layer drop1
I0705 03:34:47.671380  5429 net.cpp:406] drop1 <- fc1
I0705 03:34:47.671399  5429 net.cpp:367] drop1 -> fc1 (in-place)
I0705 03:34:47.671452  5429 net.cpp:122] Setting up drop1
I0705 03:34:47.671463  5429 net.cpp:129] Top shape: 64 1024 (65536)
I0705 03:34:47.671469  5429 net.cpp:137] Memory required for data: 914688
I0705 03:34:47.671475  5429 layer_factory.hpp:77] Creating layer fc2
I0705 03:34:47.671489  5429 net.cpp:84] Creating Layer fc2
I0705 03:34:47.671497  5429 net.cpp:406] fc2 <- fc1
I0705 03:34:47.671506  5429 net.cpp:380] fc2 -> fc2
I0705 03:34:47.679260  5429 net.cpp:122] Setting up fc2
I0705 03:34:47.679308  5429 net.cpp:129] Top shape: 64 1024 (65536)
I0705 03:34:47.679314  5429 net.cpp:137] Memory required for data: 1176832
I0705 03:34:47.679332  5429 layer_factory.hpp:77] Creating layer relu2
I0705 03:34:47.679344  5429 net.cpp:84] Creating Layer relu2
I0705 03:34:47.679352  5429 net.cpp:406] relu2 <- fc2
I0705 03:34:47.679370  5429 net.cpp:367] relu2 -> fc2 (in-place)
I0705 03:34:47.679761  5429 net.cpp:122] Setting up relu2
I0705 03:34:47.679783  5429 net.cpp:129] Top shape: 64 1024 (65536)
I0705 03:34:47.679790  5429 net.cpp:137] Memory required for data: 1438976
I0705 03:34:47.679796  5429 layer_factory.hpp:77] Creating layer drop2
I0705 03:34:47.679805  5429 net.cpp:84] Creating Layer drop2
I0705 03:34:47.679811  5429 net.cpp:406] drop2 <- fc2
I0705 03:34:47.679827  5429 net.cpp:367] drop2 -> fc2 (in-place)
I0705 03:34:47.679862  5429 net.cpp:122] Setting up drop2
I0705 03:34:47.679873  5429 net.cpp:129] Top shape: 64 1024 (65536)
I0705 03:34:47.679879  5429 net.cpp:137] Memory required for data: 1701120
I0705 03:34:47.679884  5429 layer_factory.hpp:77] Creating layer fc3
I0705 03:34:47.679895  5429 net.cpp:84] Creating Layer fc3
I0705 03:34:47.679901  5429 net.cpp:406] fc3 <- fc2
I0705 03:34:47.679958  5429 net.cpp:380] fc3 -> fc3
I0705 03:34:47.681660  5429 net.cpp:122] Setting up fc3
I0705 03:34:47.681689  5429 net.cpp:129] Top shape: 64 200 (12800)
I0705 03:34:47.681696  5429 net.cpp:137] Memory required for data: 1752320
I0705 03:34:47.681710  5429 layer_factory.hpp:77] Creating layer loss
I0705 03:34:47.681736  5429 net.cpp:84] Creating Layer loss
I0705 03:34:47.681764  5429 net.cpp:406] loss <- fc3
I0705 03:34:47.681793  5429 net.cpp:406] loss <- label
I0705 03:34:47.681823  5429 net.cpp:380] loss -> loss
I0705 03:34:47.681860  5429 layer_factory.hpp:77] Creating layer loss
…
I0705 03:34:47.683533  5429 net.cpp:294] The NetState phase (1) differed from the phase (0) specified by a rule in layer data
I0705 03:34:47.683656  5429 net.cpp:51] Initializing net from parameters: 
name: "C3DNet"
state {
  phase: TEST
}
layer {
  name: "data"
  type: "Data"
  top: "data"
  top: "label"
  include {
    phase: TEST
  }
  transform_param {
    mirror: false
    mean_file: "mean_c3d.binaryproto"
  }
  data_param {
    source: "/home/hadoop/VisionWorkspace/ActivityNet/new_lmdb/c3d_lmdb_4k_1k/val_c3d_lmdb"
    batch_size: 50
    backend: LMDB
  }
}
layer {
  name: "fc1"
  type: "InnerProduct"
  bottom: "data"
  top: "fc1"
  param {
    lr_mult: 1
  }
  param {
    lr_mult: 2
    decay_mult: 0
  }
  inner_product_param {
    num_output: 1024
    weight_filler {
      type: "xavier"
    }
    bias_filler {
      type: "constant"
    }
  }
}
layer {
  name: "relu1"
  type: "ReLU"
  bottom: "fc1"
  top: "fc1"
}
layer {
  name: "drop1"
  type: "Dropout"
  bottom: "fc1"
  top: "fc1"
  dropout_param {
    dropout_ratio: 0.5
  }
}
layer {
  name: "fc2"
  type: "InnerProduct"
  bottom: "fc1"
  top: "fc2"
  param {
    lr_mult: 1
  }
  param {
    lr_mult: 2
  }
  inner_product_param {
    num_output: 1024
    weight_filler {
      type: "xavier"
    }
    bias_filler {
      type: "constant"
    }
  }
}
layer {
  name: "relu2"
  type: "ReLU"
  bottom: "fc2"
  top: "fc2"
}
layer {
  name: "drop2"
  type: "Dropout"
  bottom: "fc2"
  top: "fc2"
  dropout_param {
    dropout_ratio: 0.5
  }
}
layer {
  name: "fc3"
  type: "InnerProduct"
  bottom: "fc2"
  top: "fc3"
  param {
    lr_mult: 1
  }
  param {
    lr_mult: 2
  }
  inner_product_param {
    num_output: 200
    weight_filler {
      type: "xavier"
    }
    bias_filler {
      type: "constant"
    }
  }
}
layer {
  name: "accuracy"
  type: "Accuracy"
  bottom: "fc3"
  bottom: "label"
  top: "accuracy"
  include {
    phase: TEST
  }
}
layer {
  name: "loss"
  type: "SoftmaxWithLoss"
  bottom: "fc3"
  bottom: "label"
  top: "loss"
}
I0705 03:34:47.683732  5429 layer_factory.hpp:77] Creating layer data
I0705 03:34:47.764147  5429 db_lmdb.cpp:35] Opened lmdb /home/hadoop/VisionWorkspace/ActivityNet/new_lmdb/c3d_lmdb_4k_1k/val_c3d_lmdb
I0705 03:34:47.767961  5429 net.cpp:84] Creating Layer data
I0705 03:34:47.767997  5429 net.cpp:380] data -> data
I0705 03:34:47.768016  5429 net.cpp:380] data -> label
I0705 03:34:47.768038  5429 data_transformer.cpp:25] Loading mean file from: mean_c3d.binaryproto
I0705 03:34:47.768299  5429 data_layer.cpp:45] output data size: 50,500,1,1
I0705 03:34:47.768856  5429 net.cpp:122] Setting up data
I0705 03:34:47.768887  5429 net.cpp:129] Top shape: 50 500 1 1 (25000)
I0705 03:34:47.768895  5429 net.cpp:129] Top shape: 50 (50)
I0705 03:34:47.768900  5429 net.cpp:137] Memory required for data: 100200
I0705 03:34:47.768906  5429 layer_factory.hpp:77] Creating layer label_data_1_split
I0705 03:34:47.768919  5429 net.cpp:84] Creating Layer label_data_1_split
I0705 03:34:47.768934  5429 net.cpp:406] label_data_1_split <- label
I0705 03:34:47.768944  5429 net.cpp:380] label_data_1_split -> label_data_1_split_0
I0705 03:34:47.768959  5429 net.cpp:380] label_data_1_split -> label_data_1_split_1
I0705 03:34:47.769107  5429 net.cpp:122] Setting up label_data_1_split
I0705 03:34:47.769136  5429 net.cpp:129] Top shape: 50 (50)
I0705 03:34:47.769145  5429 net.cpp:129] Top shape: 50 (50)
I0705 03:34:47.769150  5429 net.cpp:137] Memory required for data: 100600
I0705 03:34:47.769156  5429 layer_factory.hpp:77] Creating layer fc1
I0705 03:34:47.769179  5429 net.cpp:84] Creating Layer fc1
I0705 03:34:47.769188  5429 net.cpp:406] fc1 <- data
I0705 03:34:47.769199  5429 net.cpp:380] fc1 -> fc1
I0705 03:34:47.773207  5429 net.cpp:122] Setting up fc1
I0705 03:34:47.773226  5429 net.cpp:129] Top shape: 50 1024 (51200)
I0705 03:34:47.773232  5429 net.cpp:137] Memory required for data: 305400
I0705 03:34:47.773249  5429 layer_factory.hpp:77] Creating layer relu1
I0705 03:34:47.773283  5429 net.cpp:84] Creating Layer relu1
I0705 03:34:47.773303  5429 net.cpp:406] relu1 <- fc1
I0705 03:34:47.773310  5429 net.cpp:367] relu1 -> fc1 (in-place)
I0705 03:34:47.773514  5429 net.cpp:122] Setting up relu1
I0705 03:34:47.773525  5429 net.cpp:129] Top shape: 50 1024 (51200)
I0705 03:34:47.773530  5429 net.cpp:137] Memory required for data: 510200
I0705 03:34:47.773545  5429 layer_factory.hpp:77] Creating layer drop1
I0705 03:34:47.773555  5429 net.cpp:84] Creating Layer drop1
I0705 03:34:47.773561  5429 net.cpp:406] drop1 <- fc1
I0705 03:34:47.773567  5429 net.cpp:367] drop1 -> fc1 (in-place)
I0705 03:34:47.773615  5429 net.cpp:122] Setting up drop1
I0705 03:34:47.773634  5429 net.cpp:129] Top shape: 50 1024 (51200)
I0705 03:34:47.773648  5429 net.cpp:137] Memory required for data: 715000
I0705 03:34:47.773654  5429 layer_factory.hpp:77] Creating layer fc2
I0705 03:34:47.773663  5429 net.cpp:84] Creating Layer fc2
I0705 03:34:47.773669  5429 net.cpp:406] fc2 <- fc1
I0705 03:34:47.773694  5429 net.cpp:380] fc2 -> fc2
I0705 03:34:47.781746  5429 net.cpp:122] Setting up fc2
I0705 03:34:47.781780  5429 net.cpp:129] Top shape: 50 1024 (51200)
I0705 03:34:47.781787  5429 net.cpp:137] Memory required for data: 919800
I0705 03:34:47.781803  5429 layer_factory.hpp:77] Creating layer relu2
I0705 03:34:47.781816  5429 net.cpp:84] Creating Layer relu2
I0705 03:34:47.781823  5429 net.cpp:406] relu2 <- fc2
I0705 03:34:47.781832  5429 net.cpp:367] relu2 -> fc2 (in-place)
I0705 03:34:47.782249  5429 net.cpp:122] Setting up relu2
I0705 03:34:47.782264  5429 net.cpp:129] Top shape: 50 1024 (51200)
I0705 03:34:47.782269  5429 net.cpp:137] Memory required for data: 1124600
I0705 03:34:47.782275  5429 layer_factory.hpp:77] Creating layer drop2
I0705 03:34:47.782294  5429 net.cpp:84] Creating Layer drop2
I0705 03:34:47.782301  5429 net.cpp:406] drop2 <- fc2
I0705 03:34:47.782308  5429 net.cpp:367] drop2 -> fc2 (in-place)
I0705 03:34:47.782344  5429 net.cpp:122] Setting up drop2
I0705 03:34:47.782363  5429 net.cpp:129] Top shape: 50 1024 (51200)
I0705 03:34:47.782368  5429 net.cpp:137] Memory required for data: 1329400
I0705 03:34:47.782374  5429 layer_factory.hpp:77] Creating layer fc3
I0705 03:34:47.782395  5429 net.cpp:84] Creating Layer fc3
I0705 03:34:47.782404  5429 net.cpp:406] fc3 <- fc2
I0705 03:34:47.782413  5429 net.cpp:380] fc3 -> fc3
I0705 03:34:47.784176  5429 net.cpp:122] Setting up fc3
I0705 03:34:47.784193  5429 net.cpp:129] Top shape: 50 200 (10000)
I0705 03:34:47.784199  5429 net.cpp:137] Memory required for data: 1369400
I0705 03:34:47.784211  5429 layer_factory.hpp:77] Creating layer fc3_fc3_0_split
I0705 03:34:47.784222  5429 net.cpp:84] Creating Layer fc3_fc3_0_split
I0705 03:34:47.784229  5429 net.cpp:406] fc3_fc3_0_split <- fc3
I0705 03:34:47.784236  5429 net.cpp:380] fc3_fc3_0_split -> fc3_fc3_0_split_0
I0705 03:34:47.784255  5429 net.cpp:380] fc3_fc3_0_split -> fc3_fc3_0_split_1
I0705 03:34:47.784301  5429 net.cpp:122] Setting up fc3_fc3_0_split
I0705 03:34:47.784332  5429 net.cpp:129] Top shape: 50 200 (10000)
I0705 03:34:47.784338  5429 net.cpp:129] Top shape: 50 200 (10000)
I0705 03:34:47.784353  5429 net.cpp:137] Memory required for data: 1449400
I0705 03:34:47.784358  5429 layer_factory.hpp:77] Creating layer accuracy
I0705 03:34:47.784371  5429 net.cpp:84] Creating Layer accuracy
I0705 03:34:47.784386  5429 net.cpp:406] accuracy <- fc3_fc3_0_split_0
I0705 03:34:47.784392  5429 net.cpp:406] accuracy <- label_data_1_split_0
I0705 03:34:47.784404  5429 net.cpp:380] accuracy -> accuracy
…
