…
I0705 16:28:11.035109  9160 net.cpp:294] The NetState phase (0) differed from the phase (1) specified by a rule in layer accuracy
I0705 16:28:11.035203  9160 net.cpp:51] Initializing net from parameters: 
name: "C3DNet"
state {
  phase: TRAIN
  level: 0
  stage: ""
}
layer {
  name: "data"
  type: "Data"
  top: "data"
  top: "label"
  include {
    phase: TRAIN
  }
  transform_param {
    mirror: false
    mean_file: "mean_c3d_10k.binaryproto"
  }
  data_param {
    source: "/home/hadoop/VisionWorkspace/ActivityNet/new_lmdb/train_c3d_lmdb"
    batch_size: 64
    backend: LMDB
  }
}
layer {
  name: "fc1"
  type: "InnerProduct"
  bottom: "data"
  top: "fc1"
  param {
    lr_mult: 1
  }
  param {
    lr_mult: 2
    decay_mult: 0
  }
  inner_product_param {
    num_output: 1024
    weight_filler {
      type: "xavier"
    }
    bias_filler {
      type: "constant"
    }
  }
}
layer {
  name: "relu1"
  type: "ReLU"
  bottom: "fc1"
  top: "fc1"
}
layer {
  name: "drop1"
  type: "Dropout"
  bottom: "fc1"
  top: "fc1"
  dropout_param {
    dropout_ratio: 0.5
  }
}
layer {
  name: "fc2"
  type: "InnerProduct"
  bottom: "fc1"
  top: "fc2"
  param {
    lr_mult: 1
  }
  param {
    lr_mult: 2
  }
  inner_product_param {
    num_output: 1024
    weight_filler {
      type: "xavier"
    }
    bias_filler {
      type: "constant"
    }
  }
}
layer {
  name: "relu2"
  type: "ReLU"
  bottom: "fc2"
  top: "fc2"
}
layer {
  name: "drop2"
  type: "Dropout"
  bottom: "fc2"
  top: "fc2"
  dropout_param {
    dropout_ratio: 0.5
  }
}
layer {
  name: "fc3"
  type: "InnerProduct"
  bottom: "fc2"
  top: "fc3"
  param {
    lr_mult: 1
  }
  param {
    lr_mult: 2
  }
  inner_product_param {
    num_output: 200
    weight_filler {
      type: "xavier"
    }
    bias_filler {
      type: "constant"
    }
  }
}
layer {
  name: "loss"
  type: "SoftmaxWithLoss"
  bottom: "fc3"
  bottom: "label"
  top: "loss"
}
I0705 16:28:11.062654  9160 layer_factory.hpp:77] Creating layer data
I0705 16:28:11.082983  9160 db_lmdb.cpp:35] Opened lmdb /home/hadoop/VisionWorkspace/ActivityNet/new_lmdb/train_c3d_lmdb
I0705 16:28:11.135471  9160 net.cpp:84] Creating Layer data
I0705 16:28:11.135515  9160 net.cpp:380] data -> data
I0705 16:28:11.197405  9160 net.cpp:380] data -> label
I0705 16:28:11.197465  9160 data_transformer.cpp:25] Loading mean file from: mean_c3d_10k.binaryproto
I0705 16:28:11.204890  9160 data_layer.cpp:45] output data size: 64,500,1,1
I0705 16:28:11.207054  9160 net.cpp:122] Setting up data
I0705 16:28:11.207121  9160 net.cpp:129] Top shape: 64 500 1 1 (32000)
I0705 16:28:11.207139  9160 net.cpp:129] Top shape: 64 (64)
I0705 16:28:11.207151  9160 net.cpp:137] Memory required for data: 128256
I0705 16:28:11.207170  9160 layer_factory.hpp:77] Creating layer fc1
I0705 16:28:11.207196  9160 net.cpp:84] Creating Layer fc1
I0705 16:28:11.207209  9160 net.cpp:406] fc1 <- data
I0705 16:28:11.207238  9160 net.cpp:380] fc1 -> fc1
I0705 16:28:11.213946  9160 net.cpp:122] Setting up fc1
I0705 16:28:11.213979  9160 net.cpp:129] Top shape: 64 1024 (65536)
I0705 16:28:11.213985  9160 net.cpp:137] Memory required for data: 390400
I0705 16:28:11.214006  9160 layer_factory.hpp:77] Creating layer relu1
I0705 16:28:11.214057  9160 net.cpp:84] Creating Layer relu1
I0705 16:28:11.214066  9160 net.cpp:406] relu1 <- fc1
I0705 16:28:11.214074  9160 net.cpp:367] relu1 -> fc1 (in-place)
I0705 16:28:12.507293  9160 net.cpp:122] Setting up relu1
I0705 16:28:12.507336  9160 net.cpp:129] Top shape: 64 1024 (65536)
I0705 16:28:12.507344  9160 net.cpp:137] Memory required for data: 652544
I0705 16:28:12.507351  9160 layer_factory.hpp:77] Creating layer drop1
I0705 16:28:12.507366  9160 net.cpp:84] Creating Layer drop1
I0705 16:28:12.507374  9160 net.cpp:406] drop1 <- fc1
I0705 16:28:12.507383  9160 net.cpp:367] drop1 -> fc1 (in-place)
I0705 16:28:12.507460  9160 net.cpp:122] Setting up drop1
I0705 16:28:12.507472  9160 net.cpp:129] Top shape: 64 1024 (65536)
I0705 16:28:12.507477  9160 net.cpp:137] Memory required for data: 914688
I0705 16:28:12.507483  9160 layer_factory.hpp:77] Creating layer fc2
I0705 16:28:12.507496  9160 net.cpp:84] Creating Layer fc2
I0705 16:28:12.507503  9160 net.cpp:406] fc2 <- fc1
I0705 16:28:12.507524  9160 net.cpp:380] fc2 -> fc2
I0705 16:28:12.514976  9160 net.cpp:122] Setting up fc2
I0705 16:28:12.515004  9160 net.cpp:129] Top shape: 64 1024 (65536)
I0705 16:28:12.515019  9160 net.cpp:137] Memory required for data: 1176832
I0705 16:28:12.515033  9160 layer_factory.hpp:77] Creating layer relu2
I0705 16:28:12.515043  9160 net.cpp:84] Creating Layer relu2
I0705 16:28:12.515049  9160 net.cpp:406] relu2 <- fc2
I0705 16:28:12.515058  9160 net.cpp:367] relu2 -> fc2 (in-place)
I0705 16:28:12.515424  9160 net.cpp:122] Setting up relu2
I0705 16:28:12.515437  9160 net.cpp:129] Top shape: 64 1024 (65536)
I0705 16:28:12.515442  9160 net.cpp:137] Memory required for data: 1438976
I0705 16:28:12.515456  9160 layer_factory.hpp:77] Creating layer drop2
I0705 16:28:12.515465  9160 net.cpp:84] Creating Layer drop2
I0705 16:28:12.515470  9160 net.cpp:406] drop2 <- fc2
I0705 16:28:12.515477  9160 net.cpp:367] drop2 -> fc2 (in-place)
I0705 16:28:12.515513  9160 net.cpp:122] Setting up drop2
I0705 16:28:12.515523  9160 net.cpp:129] Top shape: 64 1024 (65536)
I0705 16:28:12.515529  9160 net.cpp:137] Memory required for data: 1701120
I0705 16:28:12.515534  9160 layer_factory.hpp:77] Creating layer fc3
I0705 16:28:12.515543  9160 net.cpp:84] Creating Layer fc3
I0705 16:28:12.515549  9160 net.cpp:406] fc3 <- fc2
I0705 16:28:12.515558  9160 net.cpp:380] fc3 -> fc3
I0705 16:28:12.517194  9160 net.cpp:122] Setting up fc3
I0705 16:28:12.517210  9160 net.cpp:129] Top shape: 64 200 (12800)
I0705 16:28:12.517216  9160 net.cpp:137] Memory required for data: 1752320
I0705 16:28:12.517228  9160 layer_factory.hpp:77] Creating layer loss
I0705 16:28:12.517246  9160 net.cpp:84] Creating Layer loss
I0705 16:28:12.517253  9160 net.cpp:406] loss <- fc3
I0705 16:28:12.517261  9160 net.cpp:406] loss <- label
I0705 16:28:12.517279  9160 net.cpp:380] loss -> loss
I0705 16:28:12.517304  9160 layer_factory.hpp:77] Creating layer loss
…
I0705 16:28:12.518551  9160 net.cpp:294] The NetState phase (1) differed from the phase (0) specified by a rule in layer data
I0705 16:28:12.518647  9160 net.cpp:51] Initializing net from parameters: 
name: "C3DNet"
state {
  phase: TEST
}
layer {
  name: "data"
  type: "Data"
  top: "data"
  top: "label"
  include {
    phase: TEST
  }
  transform_param {
    mirror: false
    mean_file: "mean_c3d_10k.binaryproto"
  }
  data_param {
    source: "/home/hadoop/VisionWorkspace/ActivityNet/new_lmdb/val_c3d_lmdb"
    batch_size: 50
    backend: LMDB
  }
}
layer {
  name: "fc1"
  type: "InnerProduct"
  bottom: "data"
  top: "fc1"
  param {
    lr_mult: 1
  }
  param {
    lr_mult: 2
    decay_mult: 0
  }
  inner_product_param {
    num_output: 1024
    weight_filler {
      type: "xavier"
    }
    bias_filler {
      type: "constant"
    }
  }
}
layer {
  name: "relu1"
  type: "ReLU"
  bottom: "fc1"
  top: "fc1"
}
layer {
  name: "drop1"
  type: "Dropout"
  bottom: "fc1"
  top: "fc1"
  dropout_param {
    dropout_ratio: 0.5
  }
}
layer {
  name: "fc2"
  type: "InnerProduct"
  bottom: "fc1"
  top: "fc2"
  param {
    lr_mult: 1
  }
  param {
    lr_mult: 2
  }
  inner_product_param {
    num_output: 1024
    weight_filler {
      type: "xavier"
    }
    bias_filler {
      type: "constant"
    }
  }
}
layer {
  name: "relu2"
  type: "ReLU"
  bottom: "fc2"
  top: "fc2"
}
layer {
  name: "drop2"
  type: "Dropout"
  bottom: "fc2"
  top: "fc2"
  dropout_param {
    dropout_ratio: 0.5
  }
}
layer {
  name: "fc3"
  type: "InnerProduct"
  bottom: "fc2"
  top: "fc3"
  param {
    lr_mult: 1
  }
  param {
    lr_mult: 2
  }
  inner_product_param {
    num_output: 200
    weight_filler {
      type: "xavier"
    }
    bias_filler {
      type: "constant"
    }
  }
}
layer {
  name: "accuracy"
  type: "Accuracy"
  bottom: "fc3"
  bottom: "label"
  top: "accuracy"
  include {
    phase: TEST
  }
}
layer {
  name: "loss"
  type: "SoftmaxWithLoss"
  bottom: "fc3"
  bottom: "label"
  top: "loss"
}
I0705 16:28:12.518715  9160 layer_factory.hpp:77] Creating layer data
I0705 16:28:12.518774  9160 db_lmdb.cpp:35] Opened lmdb /home/hadoop/VisionWorkspace/ActivityNet/new_lmdb/val_c3d_lmdb
I0705 16:28:12.548524  9160 net.cpp:84] Creating Layer data
I0705 16:28:12.548564  9160 net.cpp:380] data -> data
I0705 16:28:12.548580  9160 net.cpp:380] data -> label
I0705 16:28:12.548593  9160 data_transformer.cpp:25] Loading mean file from: mean_c3d_10k.binaryproto
I0705 16:28:12.548789  9160 data_layer.cpp:45] output data size: 50,500,1,1
I0705 16:28:12.549307  9160 net.cpp:122] Setting up data
I0705 16:28:12.549330  9160 net.cpp:129] Top shape: 50 500 1 1 (25000)
I0705 16:28:12.549338  9160 net.cpp:129] Top shape: 50 (50)
I0705 16:28:12.549345  9160 net.cpp:137] Memory required for data: 100200
I0705 16:28:12.549350  9160 layer_factory.hpp:77] Creating layer label_data_1_split
I0705 16:28:12.549363  9160 net.cpp:84] Creating Layer label_data_1_split
I0705 16:28:12.549381  9160 net.cpp:406] label_data_1_split <- label
I0705 16:28:12.549391  9160 net.cpp:380] label_data_1_split -> label_data_1_split_0
I0705 16:28:12.549401  9160 net.cpp:380] label_data_1_split -> label_data_1_split_1
I0705 16:28:12.549456  9160 net.cpp:122] Setting up label_data_1_split
I0705 16:28:12.549468  9160 net.cpp:129] Top shape: 50 (50)
I0705 16:28:12.549474  9160 net.cpp:129] Top shape: 50 (50)
I0705 16:28:12.549521  9160 net.cpp:137] Memory required for data: 100600
I0705 16:28:12.549530  9160 layer_factory.hpp:77] Creating layer fc1
I0705 16:28:12.549551  9160 net.cpp:84] Creating Layer fc1
I0705 16:28:12.549557  9160 net.cpp:406] fc1 <- data
I0705 16:28:12.549566  9160 net.cpp:380] fc1 -> fc1
I0705 16:28:12.553540  9160 net.cpp:122] Setting up fc1
I0705 16:28:12.553562  9160 net.cpp:129] Top shape: 50 1024 (51200)
I0705 16:28:12.553571  9160 net.cpp:137] Memory required for data: 305400
I0705 16:28:12.553586  9160 layer_factory.hpp:77] Creating layer relu1
I0705 16:28:12.553647  9160 net.cpp:84] Creating Layer relu1
I0705 16:28:12.553654  9160 net.cpp:406] relu1 <- fc1
I0705 16:28:12.553663  9160 net.cpp:367] relu1 -> fc1 (in-place)
I0705 16:28:12.553870  9160 net.cpp:122] Setting up relu1
I0705 16:28:12.553884  9160 net.cpp:129] Top shape: 50 1024 (51200)
I0705 16:28:12.553890  9160 net.cpp:137] Memory required for data: 510200
I0705 16:28:12.553896  9160 layer_factory.hpp:77] Creating layer drop1
I0705 16:28:12.553906  9160 net.cpp:84] Creating Layer drop1
I0705 16:28:12.553912  9160 net.cpp:406] drop1 <- fc1
I0705 16:28:12.553920  9160 net.cpp:367] drop1 -> fc1 (in-place)
I0705 16:28:12.553984  9160 net.cpp:122] Setting up drop1
I0705 16:28:12.554003  9160 net.cpp:129] Top shape: 50 1024 (51200)
I0705 16:28:12.554013  9160 net.cpp:137] Memory required for data: 715000
I0705 16:28:12.554018  9160 layer_factory.hpp:77] Creating layer fc2
I0705 16:28:12.554038  9160 net.cpp:84] Creating Layer fc2
I0705 16:28:12.554042  9160 net.cpp:406] fc2 <- fc1
I0705 16:28:12.554071  9160 net.cpp:380] fc2 -> fc2
I0705 16:28:12.561666  9160 net.cpp:122] Setting up fc2
I0705 16:28:12.561691  9160 net.cpp:129] Top shape: 50 1024 (51200)
I0705 16:28:12.561707  9160 net.cpp:137] Memory required for data: 919800
I0705 16:28:12.561719  9160 layer_factory.hpp:77] Creating layer relu2
I0705 16:28:12.561729  9160 net.cpp:84] Creating Layer relu2
I0705 16:28:12.561744  9160 net.cpp:406] relu2 <- fc2
I0705 16:28:12.561753  9160 net.cpp:367] relu2 -> fc2 (in-place)
I0705 16:28:12.562098  9160 net.cpp:122] Setting up relu2
I0705 16:28:12.562113  9160 net.cpp:129] Top shape: 50 1024 (51200)
I0705 16:28:12.562117  9160 net.cpp:137] Memory required for data: 1124600
I0705 16:28:12.562131  9160 layer_factory.hpp:77] Creating layer drop2
I0705 16:28:12.562139  9160 net.cpp:84] Creating Layer drop2
I0705 16:28:12.562145  9160 net.cpp:406] drop2 <- fc2
I0705 16:28:12.562160  9160 net.cpp:367] drop2 -> fc2 (in-place)
I0705 16:28:12.562192  9160 net.cpp:122] Setting up drop2
I0705 16:28:12.562203  9160 net.cpp:129] Top shape: 50 1024 (51200)
I0705 16:28:12.562209  9160 net.cpp:137] Memory required for data: 1329400
I0705 16:28:12.562214  9160 layer_factory.hpp:77] Creating layer fc3
I0705 16:28:12.562227  9160 net.cpp:84] Creating Layer fc3
I0705 16:28:12.562233  9160 net.cpp:406] fc3 <- fc2
I0705 16:28:12.562242  9160 net.cpp:380] fc3 -> fc3
I0705 16:28:12.563865  9160 net.cpp:122] Setting up fc3
I0705 16:28:12.563879  9160 net.cpp:129] Top shape: 50 200 (10000)
I0705 16:28:12.563884  9160 net.cpp:137] Memory required for data: 1369400
I0705 16:28:12.563895  9160 layer_factory.hpp:77] Creating layer fc3_fc3_0_split
I0705 16:28:12.563904  9160 net.cpp:84] Creating Layer fc3_fc3_0_split
I0705 16:28:12.563910  9160 net.cpp:406] fc3_fc3_0_split <- fc3
I0705 16:28:12.563916  9160 net.cpp:380] fc3_fc3_0_split -> fc3_fc3_0_split_0
I0705 16:28:12.563925  9160 net.cpp:380] fc3_fc3_0_split -> fc3_fc3_0_split_1
I0705 16:28:12.563961  9160 net.cpp:122] Setting up fc3_fc3_0_split
I0705 16:28:12.563971  9160 net.cpp:129] Top shape: 50 200 (10000)
I0705 16:28:12.563978  9160 net.cpp:129] Top shape: 50 200 (10000)
I0705 16:28:12.563983  9160 net.cpp:137] Memory required for data: 1449400
I0705 16:28:12.563988  9160 layer_factory.hpp:77] Creating layer accuracy
I0705 16:28:12.564002  9160 net.cpp:84] Creating Layer accuracy
I0705 16:28:12.564007  9160 net.cpp:406] accuracy <- fc3_fc3_0_split_0
I0705 16:28:12.564013  9160 net.cpp:406] accuracy <- label_data_1_split_0
I0705 16:28:12.564019  9160 net.cpp:380] accuracy -> accuracy
…
