…
I0630 03:01:42.266765 21523 net.cpp:322] The NetState phase (0) differed from the phase (1) specified by a rule in layer accuracy
I0630 03:01:42.267077 21523 net.cpp:58] Initializing net from parameters: 
name: "FramesAlexNet"
state {
  phase: TRAIN
  level: 0
  stage: ""
}
layer {
  name: "data"
  type: "Data"
  top: "data"
  top: "label"
  include {
    phase: TRAIN
  }
  transform_param {
    scale: 0.00390625
    mirror: true
  }
  data_param {
    source: "/home/arpan/DATA_Drive/ActivityNet/train_lmdb"
    batch_size: 128
    backend: LMDB
  }
}
layer {
  name: "conv1"
  type: "Convolution"
  bottom: "data"
  top: "conv1"
  param {
    lr_mult: 1
  }
  param {
    lr_mult: 2
  }
  convolution_param {
    num_output: 64
    kernel_size: 7
    stride: 1
    weight_filler {
      type: "xavier"
    }
    bias_filler {
      type: "constant"
    }
  }
}
layer {
  name: "relu1"
  type: "ReLU"
  bottom: "conv1"
  top: "conv1"
}
layer {
  name: "pool1"
  type: "Pooling"
  bottom: "conv1"
  top: "pool1"
  pooling_param {
    pool: MAX
    kernel_size: 2
    stride: 2
  }
}
layer {
  name: "conv2"
  type: "Convolution"
  bottom: "pool1"
  top: "conv2"
  param {
    lr_mult: 1
  }
  param {
    lr_mult: 2
  }
  convolution_param {
    num_output: 128
    kernel_size: 3
    stride: 2
    weight_filler {
      type: "xavier"
    }
    bias_filler {
      type: "constant"
    }
  }
}
layer {
  name: "relu2"
  type: "ReLU"
  bottom: "conv2"
  top: "conv2"
}
layer {
  name: "pool2"
  type: "Pooling"
  bottom: "conv2"
  top: "pool2"
  pooling_param {
    pool: MAX
    kernel_size: 2
    stride: 2
  }
}
layer {
  name: "conv3"
  type: "Convolution"
  bottom: "pool2"
  top: "conv3"
  param {
    lr_mult: 1
  }
  param {
    lr_mult: 2
  }
  convolution_param {
    num_output: 192
    kernel_size: 3
    stride: 1
    weight_filler {
      type: "xavier"
    }
    bias_filler {
      type: "constant"
    }
  }
}
layer {
  name: "relu3"
  type: "ReLU"
  bottom: "conv3"
  top: "conv3"
}
layer {
  name: "conv4"
  type: "Convolution"
  bottom: "conv3"
  top: "conv4"
  param {
    lr_mult: 1
  }
  param {
    lr_mult: 2
  }
  convolution_param {
    num_output: 128
    kernel_size: 3
    stride: 1
    weight_filler {
      type: "xavier"
    }
    bias_filler {
      type: "constant"
    }
  }
}
layer {
  name: "relu4"
  type: "ReLU"
  bottom: "conv4"
  top: "conv4"
}
layer {
  name: "conv5"
  type: "Convolution"
  bottom: "conv4"
  top: "conv5"
  param {
    lr_mult: 1
  }
  param {
    lr_mult: 2
  }
  convolution_param {
    num_output: 128
    kernel_size: 3
    stride: 1
    weight_filler {
      type: "xavier"
    }
    bias_filler {
      type: "constant"
    }
  }
}
layer {
  name: "relu5"
  type: "ReLU"
  bottom: "conv5"
  top: "conv5"
}
layer {
  name: "pool5"
  type: "Pooling"
  bottom: "conv5"
  top: "pool5"
  pooling_param {
    pool: MAX
    kernel_size: 3
    stride: 1
  }
}
layer {
  name: "fc6"
  type: "InnerProduct"
  bottom: "pool5"
  top: "fc6"
  param {
    lr_mult: 1
  }
  param {
    lr_mult: 2
  }
  inner_product_param {
    num_output: 512
    weight_filler {
      type: "xavier"
    }
    bias_filler {
      type: "constant"
    }
  }
}
layer {
  name: "relu6"
  type: "ReLU"
  bottom: "fc6"
  top: "fc6"
}
layer {
  name: "drop6"
  type: "Dropout"
  bottom: "fc6"
  top: "fc6"
  dropout_param {
    dropout_ratio: 0.5
  }
}
layer {
  name: "fc7"
  type: "InnerProduct"
  bottom: "fc6"
  top: "fc7"
  param {
    lr_mult: 1
  }
  param {
    lr_mult: 2
  }
  inner_product_param {
    num_output: 512
    weight_filler {
      type: "xavier"
    }
    bias_filler {
      type: "constant"
    }
  }
}
layer {
  name: "relu7"
  type: "ReLU"
  bottom: "fc7"
  top: "fc7"
}
layer {
  name: "drop7"
  type: "Dropout"
  bottom: "fc7"
  top: "fc7"
  dropout_param {
    dropout_ratio: 0.5
  }
}
layer {
  name: "fc8"
  type: "InnerProduct"
  bottom: "fc7"
  top: "fc8"
  param {
    lr_mult: 1
  }
  param {
    lr_mult: 2
  }
  inner_product_param {
    num_output: 200
    weight_filler {
      type: "xavier"
    }
    bias_filler {
      type: "constant"
    }
  }
}
layer {
  name: "loss"
  type: "SoftmaxWithLoss"
  bottom: "fc8"
  bottom: "label"
  top: "loss"
}
I0630 03:01:42.267258 21523 layer_factory.hpp:77] Creating layer data
I0630 03:01:42.268107 21523 net.cpp:100] Creating Layer data
I0630 03:01:42.268131 21523 net.cpp:408] data -> data
I0630 03:01:42.268206 21523 net.cpp:408] data -> label
I0630 03:01:42.270458 21527 db_lmdb.cpp:35] Opened lmdb /home/arpan/DATA_Drive/ActivityNet/train_lmdb
I0630 03:01:42.281538 21523 data_layer.cpp:41] output data size: 128,3,120,160
I0630 03:01:42.362995 21523 net.cpp:150] Setting up data
I0630 03:01:42.363068 21523 net.cpp:157] Top shape: 128 3 120 160 (7372800)
I0630 03:01:42.363078 21523 net.cpp:157] Top shape: 128 (128)
I0630 03:01:42.363083 21523 net.cpp:165] Memory required for data: 29491712
I0630 03:01:42.363104 21523 layer_factory.hpp:77] Creating layer conv1
I0630 03:01:42.363140 21523 net.cpp:100] Creating Layer conv1
I0630 03:01:42.363150 21523 net.cpp:434] conv1 <- data
I0630 03:01:42.363176 21523 net.cpp:408] conv1 -> conv1
I0630 03:01:42.389919 21528 blocking_queue.cpp:50] Waiting for data
I0630 03:01:42.570737 21523 net.cpp:150] Setting up conv1
I0630 03:01:42.570782 21523 net.cpp:157] Top shape: 128 64 114 154 (143818752)
I0630 03:01:42.570789 21523 net.cpp:165] Memory required for data: 604766720
I0630 03:01:42.570824 21523 layer_factory.hpp:77] Creating layer relu1
I0630 03:01:42.570845 21523 net.cpp:100] Creating Layer relu1
I0630 03:01:42.570854 21523 net.cpp:434] relu1 <- conv1
I0630 03:01:42.570866 21523 net.cpp:395] relu1 -> conv1 (in-place)
I0630 03:01:42.571050 21523 net.cpp:150] Setting up relu1
I0630 03:01:42.571064 21523 net.cpp:157] Top shape: 128 64 114 154 (143818752)
I0630 03:01:42.571071 21523 net.cpp:165] Memory required for data: 1180041728
I0630 03:01:42.571076 21523 layer_factory.hpp:77] Creating layer pool1
I0630 03:01:42.571094 21523 net.cpp:100] Creating Layer pool1
I0630 03:01:42.571101 21523 net.cpp:434] pool1 <- conv1
I0630 03:01:42.571110 21523 net.cpp:408] pool1 -> pool1
I0630 03:01:42.571187 21523 net.cpp:150] Setting up pool1
I0630 03:01:42.571199 21523 net.cpp:157] Top shape: 128 64 57 77 (35954688)
I0630 03:01:42.571204 21523 net.cpp:165] Memory required for data: 1323860480
I0630 03:01:42.571209 21523 layer_factory.hpp:77] Creating layer conv2
I0630 03:01:42.571230 21523 net.cpp:100] Creating Layer conv2
I0630 03:01:42.571238 21523 net.cpp:434] conv2 <- pool1
I0630 03:01:42.571247 21523 net.cpp:408] conv2 -> conv2
I0630 03:01:42.574553 21523 net.cpp:150] Setting up conv2
I0630 03:01:42.574576 21523 net.cpp:157] Top shape: 128 128 28 38 (17432576)
I0630 03:01:42.574582 21523 net.cpp:165] Memory required for data: 1393590784
I0630 03:01:42.574594 21523 layer_factory.hpp:77] Creating layer relu2
I0630 03:01:42.574604 21523 net.cpp:100] Creating Layer relu2
I0630 03:01:42.574610 21523 net.cpp:434] relu2 <- conv2
I0630 03:01:42.574621 21523 net.cpp:395] relu2 -> conv2 (in-place)
I0630 03:01:42.574940 21523 net.cpp:150] Setting up relu2
I0630 03:01:42.574957 21523 net.cpp:157] Top shape: 128 128 28 38 (17432576)
I0630 03:01:42.574988 21523 net.cpp:165] Memory required for data: 1463321088
I0630 03:01:42.574995 21523 layer_factory.hpp:77] Creating layer pool2
I0630 03:01:42.575006 21523 net.cpp:100] Creating Layer pool2
I0630 03:01:42.575013 21523 net.cpp:434] pool2 <- conv2
I0630 03:01:42.575024 21523 net.cpp:408] pool2 -> pool2
I0630 03:01:42.575081 21523 net.cpp:150] Setting up pool2
I0630 03:01:42.575093 21523 net.cpp:157] Top shape: 128 128 14 19 (4358144)
I0630 03:01:42.575103 21523 net.cpp:165] Memory required for data: 1480753664
I0630 03:01:42.575109 21523 layer_factory.hpp:77] Creating layer conv3
I0630 03:01:42.575122 21523 net.cpp:100] Creating Layer conv3
I0630 03:01:42.575129 21523 net.cpp:434] conv3 <- pool2
I0630 03:01:42.575139 21523 net.cpp:408] conv3 -> conv3
I0630 03:01:42.578620 21523 net.cpp:150] Setting up conv3
I0630 03:01:42.578641 21523 net.cpp:157] Top shape: 128 192 12 17 (5013504)
I0630 03:01:42.578647 21523 net.cpp:165] Memory required for data: 1500807680
I0630 03:01:42.578660 21523 layer_factory.hpp:77] Creating layer relu3
I0630 03:01:42.578672 21523 net.cpp:100] Creating Layer relu3
I0630 03:01:42.578678 21523 net.cpp:434] relu3 <- conv3
I0630 03:01:42.578685 21523 net.cpp:395] relu3 -> conv3 (in-place)
I0630 03:01:42.578999 21523 net.cpp:150] Setting up relu3
I0630 03:01:42.579016 21523 net.cpp:157] Top shape: 128 192 12 17 (5013504)
I0630 03:01:42.579021 21523 net.cpp:165] Memory required for data: 1520861696
I0630 03:01:42.579026 21523 layer_factory.hpp:77] Creating layer conv4
I0630 03:01:42.579041 21523 net.cpp:100] Creating Layer conv4
I0630 03:01:42.579048 21523 net.cpp:434] conv4 <- conv3
I0630 03:01:42.579061 21523 net.cpp:408] conv4 -> conv4
I0630 03:01:42.582713 21523 net.cpp:150] Setting up conv4
I0630 03:01:42.582736 21523 net.cpp:157] Top shape: 128 128 10 15 (2457600)
I0630 03:01:42.582742 21523 net.cpp:165] Memory required for data: 1530692096
I0630 03:01:42.582751 21523 layer_factory.hpp:77] Creating layer relu4
I0630 03:01:42.582761 21523 net.cpp:100] Creating Layer relu4
I0630 03:01:42.582765 21523 net.cpp:434] relu4 <- conv4
I0630 03:01:42.582772 21523 net.cpp:395] relu4 -> conv4 (in-place)
I0630 03:01:42.582947 21523 net.cpp:150] Setting up relu4
I0630 03:01:42.582962 21523 net.cpp:157] Top shape: 128 128 10 15 (2457600)
I0630 03:01:42.582968 21523 net.cpp:165] Memory required for data: 1540522496
I0630 03:01:42.582973 21523 layer_factory.hpp:77] Creating layer conv5
I0630 03:01:42.582988 21523 net.cpp:100] Creating Layer conv5
I0630 03:01:42.582995 21523 net.cpp:434] conv5 <- conv4
I0630 03:01:42.583003 21523 net.cpp:408] conv5 -> conv5
I0630 03:01:42.585314 21523 net.cpp:150] Setting up conv5
I0630 03:01:42.585335 21523 net.cpp:157] Top shape: 128 128 8 13 (1703936)
I0630 03:01:42.585341 21523 net.cpp:165] Memory required for data: 1547338240
I0630 03:01:42.585353 21523 layer_factory.hpp:77] Creating layer relu5
I0630 03:01:42.585363 21523 net.cpp:100] Creating Layer relu5
I0630 03:01:42.585368 21523 net.cpp:434] relu5 <- conv5
I0630 03:01:42.585378 21523 net.cpp:395] relu5 -> conv5 (in-place)
I0630 03:01:42.585691 21523 net.cpp:150] Setting up relu5
I0630 03:01:42.585708 21523 net.cpp:157] Top shape: 128 128 8 13 (1703936)
I0630 03:01:42.585713 21523 net.cpp:165] Memory required for data: 1554153984
I0630 03:01:42.585719 21523 layer_factory.hpp:77] Creating layer pool5
I0630 03:01:42.585728 21523 net.cpp:100] Creating Layer pool5
I0630 03:01:42.585734 21523 net.cpp:434] pool5 <- conv5
I0630 03:01:42.585744 21523 net.cpp:408] pool5 -> pool5
I0630 03:01:42.585803 21523 net.cpp:150] Setting up pool5
I0630 03:01:42.585813 21523 net.cpp:157] Top shape: 128 128 6 11 (1081344)
I0630 03:01:42.585819 21523 net.cpp:165] Memory required for data: 1558479360
I0630 03:01:42.585824 21523 layer_factory.hpp:77] Creating layer fc6
I0630 03:01:42.585842 21523 net.cpp:100] Creating Layer fc6
I0630 03:01:42.585850 21523 net.cpp:434] fc6 <- pool5
I0630 03:01:42.585860 21523 net.cpp:408] fc6 -> fc6
I0630 03:01:42.632791 21523 net.cpp:150] Setting up fc6
I0630 03:01:42.632822 21523 net.cpp:157] Top shape: 128 512 (65536)
I0630 03:01:42.632850 21523 net.cpp:165] Memory required for data: 1558741504
I0630 03:01:42.632863 21523 layer_factory.hpp:77] Creating layer relu6
I0630 03:01:42.632875 21523 net.cpp:100] Creating Layer relu6
I0630 03:01:42.632884 21523 net.cpp:434] relu6 <- fc6
I0630 03:01:42.632892 21523 net.cpp:395] relu6 -> fc6 (in-place)
I0630 03:01:42.633090 21523 net.cpp:150] Setting up relu6
I0630 03:01:42.633105 21523 net.cpp:157] Top shape: 128 512 (65536)
I0630 03:01:42.633110 21523 net.cpp:165] Memory required for data: 1559003648
I0630 03:01:42.633114 21523 layer_factory.hpp:77] Creating layer drop6
I0630 03:01:42.633129 21523 net.cpp:100] Creating Layer drop6
I0630 03:01:42.633134 21523 net.cpp:434] drop6 <- fc6
I0630 03:01:42.633141 21523 net.cpp:395] drop6 -> fc6 (in-place)
I0630 03:01:42.633177 21523 net.cpp:150] Setting up drop6
I0630 03:01:42.633193 21523 net.cpp:157] Top shape: 128 512 (65536)
I0630 03:01:42.633196 21523 net.cpp:165] Memory required for data: 1559265792
I0630 03:01:42.633201 21523 layer_factory.hpp:77] Creating layer fc7
I0630 03:01:42.633211 21523 net.cpp:100] Creating Layer fc7
I0630 03:01:42.633215 21523 net.cpp:434] fc7 <- fc6
I0630 03:01:42.633229 21523 net.cpp:408] fc7 -> fc7
I0630 03:01:42.636243 21523 net.cpp:150] Setting up fc7
I0630 03:01:42.636263 21523 net.cpp:157] Top shape: 128 512 (65536)
I0630 03:01:42.636268 21523 net.cpp:165] Memory required for data: 1559527936
I0630 03:01:42.636276 21523 layer_factory.hpp:77] Creating layer relu7
I0630 03:01:42.636288 21523 net.cpp:100] Creating Layer relu7
I0630 03:01:42.636301 21523 net.cpp:434] relu7 <- fc7
I0630 03:01:42.636307 21523 net.cpp:395] relu7 -> fc7 (in-place)
I0630 03:01:42.636629 21523 net.cpp:150] Setting up relu7
I0630 03:01:42.636646 21523 net.cpp:157] Top shape: 128 512 (65536)
I0630 03:01:42.636651 21523 net.cpp:165] Memory required for data: 1559790080
I0630 03:01:42.636656 21523 layer_factory.hpp:77] Creating layer drop7
I0630 03:01:42.636665 21523 net.cpp:100] Creating Layer drop7
I0630 03:01:42.636670 21523 net.cpp:434] drop7 <- fc7
I0630 03:01:42.636679 21523 net.cpp:395] drop7 -> fc7 (in-place)
I0630 03:01:42.636708 21523 net.cpp:150] Setting up drop7
I0630 03:01:42.636718 21523 net.cpp:157] Top shape: 128 512 (65536)
I0630 03:01:42.636723 21523 net.cpp:165] Memory required for data: 1560052224
I0630 03:01:42.636728 21523 layer_factory.hpp:77] Creating layer fc8
I0630 03:01:42.636739 21523 net.cpp:100] Creating Layer fc8
I0630 03:01:42.636744 21523 net.cpp:434] fc8 <- fc7
I0630 03:01:42.636751 21523 net.cpp:408] fc8 -> fc8
I0630 03:01:42.638451 21523 net.cpp:150] Setting up fc8
I0630 03:01:42.638469 21523 net.cpp:157] Top shape: 128 200 (25600)
I0630 03:01:42.638474 21523 net.cpp:165] Memory required for data: 1560154624
I0630 03:01:42.638483 21523 layer_factory.hpp:77] Creating layer loss
I0630 03:01:42.638492 21523 net.cpp:100] Creating Layer loss
I0630 03:01:42.638497 21523 net.cpp:434] loss <- fc8
I0630 03:01:42.638504 21523 net.cpp:434] loss <- label
I0630 03:01:42.638514 21523 net.cpp:408] loss -> loss
I0630 03:01:42.638542 21523 layer_factory.hpp:77] Creating layer loss
…
I0630 03:01:42.639768 21523 solver.cpp:181] Creating test net (#0) specified by net file: /home/arpan/DATA_Drive/ActivityNet/ActivityNet-master/caffe_models/frames_alexnet_mirror.prototxt
I0630 03:01:42.639828 21523 net.cpp:322] The NetState phase (1) differed from the phase (0) specified by a rule in layer data
I0630 03:01:42.640131 21523 net.cpp:58] Initializing net from parameters: 
name: "FramesAlexNet"
state {
  phase: TEST
}
layer {
  name: "data"
  type: "Data"
  top: "data"
  top: "label"
  include {
    phase: TEST
  }
  transform_param {
    scale: 0.00390625
    mirror: false
  }
  data_param {
    source: "/home/arpan/DATA_Drive/ActivityNet/val_lmdb"
    batch_size: 100
    backend: LMDB
  }
}
layer {
  name: "conv1"
  type: "Convolution"
  bottom: "data"
  top: "conv1"
  param {
    lr_mult: 1
  }
  param {
    lr_mult: 2
  }
  convolution_param {
    num_output: 64
    kernel_size: 7
    stride: 1
    weight_filler {
      type: "xavier"
    }
    bias_filler {
      type: "constant"
    }
  }
}
layer {
  name: "relu1"
  type: "ReLU"
  bottom: "conv1"
  top: "conv1"
}
layer {
  name: "pool1"
  type: "Pooling"
  bottom: "conv1"
  top: "pool1"
  pooling_param {
    pool: MAX
    kernel_size: 2
    stride: 2
  }
}
layer {
  name: "conv2"
  type: "Convolution"
  bottom: "pool1"
  top: "conv2"
  param {
    lr_mult: 1
  }
  param {
    lr_mult: 2
  }
  convolution_param {
    num_output: 128
    kernel_size: 3
    stride: 2
    weight_filler {
      type: "xavier"
    }
    bias_filler {
      type: "constant"
    }
  }
}
layer {
  name: "relu2"
  type: "ReLU"
  bottom: "conv2"
  top: "conv2"
}
layer {
  name: "pool2"
  type: "Pooling"
  bottom: "conv2"
  top: "pool2"
  pooling_param {
    pool: MAX
    kernel_size: 2
    stride: 2
  }
}
layer {
  name: "conv3"
  type: "Convolution"
  bottom: "pool2"
  top: "conv3"
  param {
    lr_mult: 1
  }
  param {
    lr_mult: 2
  }
  convolution_param {
    num_output: 192
    kernel_size: 3
    stride: 1
    weight_filler {
      type: "xavier"
    }
    bias_filler {
      type: "constant"
    }
  }
}
layer {
  name: "relu3"
  type: "ReLU"
  bottom: "conv3"
  top: "conv3"
}
layer {
  name: "conv4"
  type: "Convolution"
  bottom: "conv3"
  top: "conv4"
  param {
    lr_mult: 1
  }
  param {
    lr_mult: 2
  }
  convolution_param {
    num_output: 128
    kernel_size: 3
    stride: 1
    weight_filler {
      type: "xavier"
    }
    bias_filler {
      type: "constant"
    }
  }
}
layer {
  name: "relu4"
  type: "ReLU"
  bottom: "conv4"
  top: "conv4"
}
layer {
  name: "conv5"
  type: "Convolution"
  bottom: "conv4"
  top: "conv5"
  param {
    lr_mult: 1
  }
  param {
    lr_mult: 2
  }
  convolution_param {
    num_output: 128
    kernel_size: 3
    stride: 1
    weight_filler {
      type: "xavier"
    }
    bias_filler {
      type: "constant"
    }
  }
}
layer {
  name: "relu5"
  type: "ReLU"
  bottom: "conv5"
  top: "conv5"
}
layer {
  name: "pool5"
  type: "Pooling"
  bottom: "conv5"
  top: "pool5"
  pooling_param {
    pool: MAX
    kernel_size: 3
    stride: 1
  }
}
layer {
  name: "fc6"
  type: "InnerProduct"
  bottom: "pool5"
  top: "fc6"
  param {
    lr_mult: 1
  }
  param {
    lr_mult: 2
  }
  inner_product_param {
    num_output: 512
    weight_filler {
      type: "xavier"
    }
    bias_filler {
      type: "constant"
    }
  }
}
layer {
  name: "relu6"
  type: "ReLU"
  bottom: "fc6"
  top: "fc6"
}
layer {
  name: "drop6"
  type: "Dropout"
  bottom: "fc6"
  top: "fc6"
  dropout_param {
    dropout_ratio: 0.5
  }
}
layer {
  name: "fc7"
  type: "InnerProduct"
  bottom: "fc6"
  top: "fc7"
  param {
    lr_mult: 1
  }
  param {
    lr_mult: 2
  }
  inner_product_param {
    num_output: 512
    weight_filler {
      type: "xavier"
    }
    bias_filler {
      type: "constant"
    }
  }
}
layer {
  name: "relu7"
  type: "ReLU"
  bottom: "fc7"
  top: "fc7"
}
layer {
  name: "drop7"
  type: "Dropout"
  bottom: "fc7"
  top: "fc7"
  dropout_param {
    dropout_ratio: 0.5
  }
}
layer {
  name: "fc8"
  type: "InnerProduct"
  bottom: "fc7"
  top: "fc8"
  param {
    lr_mult: 1
  }
  param {
    lr_mult: 2
  }
  inner_product_param {
    num_output: 200
    weight_filler {
      type: "xavier"
    }
    bias_filler {
      type: "constant"
    }
  }
}
layer {
  name: "accuracy"
  type: "Accuracy"
  bottom: "fc8"
  bottom: "label"
  top: "accuracy"
  include {
    phase: TEST
  }
}
layer {
  name: "loss"
  type: "SoftmaxWithLoss"
  bottom: "fc8"
  bottom: "label"
  top: "loss"
}
I0630 03:01:42.640311 21523 layer_factory.hpp:77] Creating layer data
I0630 03:01:42.640959 21523 net.cpp:100] Creating Layer data
I0630 03:01:42.640993 21523 net.cpp:408] data -> data
I0630 03:01:42.641017 21523 net.cpp:408] data -> label
I0630 03:01:42.642804 21529 db_lmdb.cpp:35] Opened lmdb /home/arpan/DATA_Drive/ActivityNet/val_lmdb
I0630 03:01:42.643141 21523 data_layer.cpp:41] output data size: 100,3,120,160
I0630 03:01:42.708477 21523 net.cpp:150] Setting up data
I0630 03:01:42.708530 21523 net.cpp:157] Top shape: 100 3 120 160 (5760000)
I0630 03:01:42.708542 21523 net.cpp:157] Top shape: 100 (100)
I0630 03:01:42.708549 21523 net.cpp:165] Memory required for data: 23040400
I0630 03:01:42.708562 21523 layer_factory.hpp:77] Creating layer label_data_1_split
I0630 03:01:42.708585 21523 net.cpp:100] Creating Layer label_data_1_split
I0630 03:01:42.708595 21523 net.cpp:434] label_data_1_split <- label
I0630 03:01:42.708612 21523 net.cpp:408] label_data_1_split -> label_data_1_split_0
I0630 03:01:42.708636 21523 net.cpp:408] label_data_1_split -> label_data_1_split_1
I0630 03:01:42.708719 21523 net.cpp:150] Setting up label_data_1_split
I0630 03:01:42.708734 21523 net.cpp:157] Top shape: 100 (100)
I0630 03:01:42.708745 21523 net.cpp:157] Top shape: 100 (100)
I0630 03:01:42.708753 21523 net.cpp:165] Memory required for data: 23041200
I0630 03:01:42.708762 21523 layer_factory.hpp:77] Creating layer conv1
I0630 03:01:42.708792 21523 net.cpp:100] Creating Layer conv1
I0630 03:01:42.708801 21523 net.cpp:434] conv1 <- data
I0630 03:01:42.708814 21523 net.cpp:408] conv1 -> conv1
I0630 03:01:42.717401 21523 net.cpp:150] Setting up conv1
I0630 03:01:42.717428 21523 net.cpp:157] Top shape: 100 64 114 154 (112358400)
I0630 03:01:42.717438 21523 net.cpp:165] Memory required for data: 472474800
I0630 03:01:42.717464 21523 layer_factory.hpp:77] Creating layer relu1
I0630 03:01:42.717480 21523 net.cpp:100] Creating Layer relu1
I0630 03:01:42.717491 21523 net.cpp:434] relu1 <- conv1
I0630 03:01:42.717509 21523 net.cpp:395] relu1 -> conv1 (in-place)
I0630 03:01:42.718000 21523 net.cpp:150] Setting up relu1
I0630 03:01:42.718021 21523 net.cpp:157] Top shape: 100 64 114 154 (112358400)
I0630 03:01:42.718029 21523 net.cpp:165] Memory required for data: 921908400
I0630 03:01:42.718039 21523 layer_factory.hpp:77] Creating layer pool1
I0630 03:01:42.718061 21523 net.cpp:100] Creating Layer pool1
I0630 03:01:42.718070 21523 net.cpp:434] pool1 <- conv1
I0630 03:01:42.718085 21523 net.cpp:408] pool1 -> pool1
I0630 03:01:42.718163 21523 net.cpp:150] Setting up pool1
I0630 03:01:42.718204 21523 net.cpp:157] Top shape: 100 64 57 77 (28089600)
I0630 03:01:42.718214 21523 net.cpp:165] Memory required for data: 1034266800
I0630 03:01:42.718225 21523 layer_factory.hpp:77] Creating layer conv2
I0630 03:01:42.718246 21523 net.cpp:100] Creating Layer conv2
I0630 03:01:42.718255 21523 net.cpp:434] conv2 <- pool1
I0630 03:01:42.718273 21523 net.cpp:408] conv2 -> conv2
I0630 03:01:42.720682 21523 net.cpp:150] Setting up conv2
I0630 03:01:42.720722 21523 net.cpp:157] Top shape: 100 128 28 38 (13619200)
I0630 03:01:42.720741 21523 net.cpp:165] Memory required for data: 1088743600
I0630 03:01:42.720783 21523 layer_factory.hpp:77] Creating layer relu2
I0630 03:01:42.720808 21523 net.cpp:100] Creating Layer relu2
I0630 03:01:42.720826 21523 net.cpp:434] relu2 <- conv2
I0630 03:01:42.720851 21523 net.cpp:395] relu2 -> conv2 (in-place)
I0630 03:01:42.721410 21523 net.cpp:150] Setting up relu2
I0630 03:01:42.721444 21523 net.cpp:157] Top shape: 100 128 28 38 (13619200)
I0630 03:01:42.721460 21523 net.cpp:165] Memory required for data: 1143220400
I0630 03:01:42.721477 21523 layer_factory.hpp:77] Creating layer pool2
I0630 03:01:42.721499 21523 net.cpp:100] Creating Layer pool2
I0630 03:01:42.721514 21523 net.cpp:434] pool2 <- conv2
I0630 03:01:42.721544 21523 net.cpp:408] pool2 -> pool2
I0630 03:01:42.721674 21523 net.cpp:150] Setting up pool2
I0630 03:01:42.721701 21523 net.cpp:157] Top shape: 100 128 14 19 (3404800)
I0630 03:01:42.721719 21523 net.cpp:165] Memory required for data: 1156839600
I0630 03:01:42.721737 21523 layer_factory.hpp:77] Creating layer conv3
I0630 03:01:42.721781 21523 net.cpp:100] Creating Layer conv3
I0630 03:01:42.721797 21523 net.cpp:434] conv3 <- pool2
I0630 03:01:42.721825 21523 net.cpp:408] conv3 -> conv3
I0630 03:01:42.728425 21523 net.cpp:150] Setting up conv3
I0630 03:01:42.728467 21523 net.cpp:157] Top shape: 100 192 12 17 (3916800)
I0630 03:01:42.728485 21523 net.cpp:165] Memory required for data: 1172506800
I0630 03:01:42.728528 21523 layer_factory.hpp:77] Creating layer relu3
I0630 03:01:42.728554 21523 net.cpp:100] Creating Layer relu3
I0630 03:01:42.728574 21523 net.cpp:434] relu3 <- conv3
I0630 03:01:42.728598 21523 net.cpp:395] relu3 -> conv3 (in-place)
I0630 03:01:42.728930 21523 net.cpp:150] Setting up relu3
I0630 03:01:42.728960 21523 net.cpp:157] Top shape: 100 192 12 17 (3916800)
I0630 03:01:42.728976 21523 net.cpp:165] Memory required for data: 1188174000
I0630 03:01:42.728993 21523 layer_factory.hpp:77] Creating layer conv4
I0630 03:01:42.729032 21523 net.cpp:100] Creating Layer conv4
I0630 03:01:42.729048 21523 net.cpp:434] conv4 <- conv3
I0630 03:01:42.729091 21523 net.cpp:408] conv4 -> conv4
I0630 03:01:42.733372 21523 net.cpp:150] Setting up conv4
I0630 03:01:42.733395 21523 net.cpp:157] Top shape: 100 128 10 15 (1920000)
I0630 03:01:42.733405 21523 net.cpp:165] Memory required for data: 1195854000
I0630 03:01:42.733419 21523 layer_factory.hpp:77] Creating layer relu4
I0630 03:01:42.733438 21523 net.cpp:100] Creating Layer relu4
I0630 03:01:42.733450 21523 net.cpp:434] relu4 <- conv4
I0630 03:01:42.733464 21523 net.cpp:395] relu4 -> conv4 (in-place)
I0630 03:01:42.733803 21523 net.cpp:150] Setting up relu4
I0630 03:01:42.733824 21523 net.cpp:157] Top shape: 100 128 10 15 (1920000)
I0630 03:01:42.733835 21523 net.cpp:165] Memory required for data: 1203534000
I0630 03:01:42.733845 21523 layer_factory.hpp:77] Creating layer conv5
I0630 03:01:42.733867 21523 net.cpp:100] Creating Layer conv5
I0630 03:01:42.733877 21523 net.cpp:434] conv5 <- conv4
I0630 03:01:42.733893 21523 net.cpp:408] conv5 -> conv5
I0630 03:01:42.736829 21523 net.cpp:150] Setting up conv5
I0630 03:01:42.736852 21523 net.cpp:157] Top shape: 100 128 8 13 (1331200)
I0630 03:01:42.736861 21523 net.cpp:165] Memory required for data: 1208858800
I0630 03:01:42.736886 21523 layer_factory.hpp:77] Creating layer relu5
I0630 03:01:42.736899 21523 net.cpp:100] Creating Layer relu5
I0630 03:01:42.736910 21523 net.cpp:434] relu5 <- conv5
I0630 03:01:42.736927 21523 net.cpp:395] relu5 -> conv5 (in-place)
I0630 03:01:42.737283 21523 net.cpp:150] Setting up relu5
I0630 03:01:42.737308 21523 net.cpp:157] Top shape: 100 128 8 13 (1331200)
I0630 03:01:42.737316 21523 net.cpp:165] Memory required for data: 1214183600
I0630 03:01:42.737327 21523 layer_factory.hpp:77] Creating layer pool5
I0630 03:01:42.737342 21523 net.cpp:100] Creating Layer pool5
I0630 03:01:42.737351 21523 net.cpp:434] pool5 <- conv5
I0630 03:01:42.737363 21523 net.cpp:408] pool5 -> pool5
I0630 03:01:42.737448 21523 net.cpp:150] Setting up pool5
I0630 03:01:42.737470 21523 net.cpp:157] Top shape: 100 128 6 11 (844800)
I0630 03:01:42.737480 21523 net.cpp:165] Memory required for data: 1217562800
I0630 03:01:42.737490 21523 layer_factory.hpp:77] Creating layer fc6
I0630 03:01:42.737510 21523 net.cpp:100] Creating Layer fc6
I0630 03:01:42.737519 21523 net.cpp:434] fc6 <- pool5
I0630 03:01:42.737534 21523 net.cpp:408] fc6 -> fc6
I0630 03:01:42.784284 21523 net.cpp:150] Setting up fc6
I0630 03:01:42.784327 21523 net.cpp:157] Top shape: 100 512 (51200)
I0630 03:01:42.784337 21523 net.cpp:165] Memory required for data: 1217767600
I0630 03:01:42.784353 21523 layer_factory.hpp:77] Creating layer relu6
I0630 03:01:42.784379 21523 net.cpp:100] Creating Layer relu6
I0630 03:01:42.784390 21523 net.cpp:434] relu6 <- fc6
I0630 03:01:42.784407 21523 net.cpp:395] relu6 -> fc6 (in-place)
I0630 03:01:42.784916 21523 net.cpp:150] Setting up relu6
I0630 03:01:42.784936 21523 net.cpp:157] Top shape: 100 512 (51200)
I0630 03:01:42.784945 21523 net.cpp:165] Memory required for data: 1217972400
I0630 03:01:42.784955 21523 layer_factory.hpp:77] Creating layer drop6
I0630 03:01:42.784976 21523 net.cpp:100] Creating Layer drop6
I0630 03:01:42.784984 21523 net.cpp:434] drop6 <- fc6
I0630 03:01:42.784997 21523 net.cpp:395] drop6 -> fc6 (in-place)
I0630 03:01:42.785048 21523 net.cpp:150] Setting up drop6
I0630 03:01:42.785061 21523 net.cpp:157] Top shape: 100 512 (51200)
I0630 03:01:42.785069 21523 net.cpp:165] Memory required for data: 1218177200
I0630 03:01:42.785079 21523 layer_factory.hpp:77] Creating layer fc7
I0630 03:01:42.785106 21523 net.cpp:100] Creating Layer fc7
I0630 03:01:42.785115 21523 net.cpp:434] fc7 <- fc6
I0630 03:01:42.785130 21523 net.cpp:408] fc7 -> fc7
I0630 03:01:42.788312 21523 net.cpp:150] Setting up fc7
I0630 03:01:42.788334 21523 net.cpp:157] Top shape: 100 512 (51200)
I0630 03:01:42.788343 21523 net.cpp:165] Memory required for data: 1218382000
I0630 03:01:42.788357 21523 layer_factory.hpp:77] Creating layer relu7
I0630 03:01:42.788377 21523 net.cpp:100] Creating Layer relu7
I0630 03:01:42.788385 21523 net.cpp:434] relu7 <- fc7
I0630 03:01:42.788398 21523 net.cpp:395] relu7 -> fc7 (in-place)
I0630 03:01:42.788592 21523 net.cpp:150] Setting up relu7
I0630 03:01:42.788610 21523 net.cpp:157] Top shape: 100 512 (51200)
I0630 03:01:42.788619 21523 net.cpp:165] Memory required for data: 1218586800
I0630 03:01:42.788628 21523 layer_factory.hpp:77] Creating layer drop7
I0630 03:01:42.788643 21523 net.cpp:100] Creating Layer drop7
I0630 03:01:42.788652 21523 net.cpp:434] drop7 <- fc7
I0630 03:01:42.788667 21523 net.cpp:395] drop7 -> fc7 (in-place)
I0630 03:01:42.788712 21523 net.cpp:150] Setting up drop7
I0630 03:01:42.788724 21523 net.cpp:157] Top shape: 100 512 (51200)
I0630 03:01:42.788733 21523 net.cpp:165] Memory required for data: 1218791600
I0630 03:01:42.788743 21523 layer_factory.hpp:77] Creating layer fc8
I0630 03:01:42.788761 21523 net.cpp:100] Creating Layer fc8
I0630 03:01:42.788769 21523 net.cpp:434] fc8 <- fc7
I0630 03:01:42.788785 21523 net.cpp:408] fc8 -> fc8
I0630 03:01:42.796221 21523 net.cpp:150] Setting up fc8
I0630 03:01:42.796248 21523 net.cpp:157] Top shape: 100 200 (20000)
I0630 03:01:42.796259 21523 net.cpp:165] Memory required for data: 1218871600
I0630 03:01:42.796274 21523 layer_factory.hpp:77] Creating layer fc8_fc8_0_split
I0630 03:01:42.796293 21523 net.cpp:100] Creating Layer fc8_fc8_0_split
I0630 03:01:42.796303 21523 net.cpp:434] fc8_fc8_0_split <- fc8
I0630 03:01:42.796316 21523 net.cpp:408] fc8_fc8_0_split -> fc8_fc8_0_split_0
I0630 03:01:42.796355 21523 net.cpp:408] fc8_fc8_0_split -> fc8_fc8_0_split_1
I0630 03:01:42.796427 21523 net.cpp:150] Setting up fc8_fc8_0_split
I0630 03:01:42.796443 21523 net.cpp:157] Top shape: 100 200 (20000)
I0630 03:01:42.796458 21523 net.cpp:157] Top shape: 100 200 (20000)
I0630 03:01:42.796465 21523 net.cpp:165] Memory required for data: 1219031600
I0630 03:01:42.796473 21523 layer_factory.hpp:77] Creating layer accuracy
I0630 03:01:42.796492 21523 net.cpp:100] Creating Layer accuracy
I0630 03:01:42.796504 21523 net.cpp:434] accuracy <- fc8_fc8_0_split_0
I0630 03:01:42.796515 21523 net.cpp:434] accuracy <- label_data_1_split_0
I0630 03:01:42.796528 21523 net.cpp:408] accuracy -> accuracy
…
