…
I0705 03:49:09.013424  8009 net.cpp:294] The NetState phase (0) differed from the phase (1) specified by a rule in layer accuracy
I0705 03:49:09.013552  8009 net.cpp:51] Initializing net from parameters: 
name: "C3DNet"
state {
  phase: TRAIN
  level: 0
  stage: ""
}
layer {
  name: "data"
  type: "Data"
  top: "data"
  top: "label"
  include {
    phase: TRAIN
  }
  transform_param {
    mirror: false
    mean_file: "mean_c3d.binaryproto"
  }
  data_param {
    source: "/home/hadoop/VisionWorkspace/ActivityNet/new_lmdb/c3d_lmdb_4k_1k/train_c3d_lmdb"
    batch_size: 64
    backend: LMDB
  }
}
layer {
  name: "fc1"
  type: "InnerProduct"
  bottom: "data"
  top: "fc1"
  param {
    lr_mult: 1
  }
  param {
    lr_mult: 2
    decay_mult: 0
  }
  inner_product_param {
    num_output: 1024
    weight_filler {
      type: "xavier"
    }
    bias_filler {
      type: "constant"
    }
  }
}
layer {
  name: "relu1"
  type: "ReLU"
  bottom: "fc1"
  top: "fc1"
}
layer {
  name: "drop1"
  type: "Dropout"
  bottom: "fc1"
  top: "fc1"
  dropout_param {
    dropout_ratio: 0.5
  }
}
layer {
  name: "fc2"
  type: "InnerProduct"
  bottom: "fc1"
  top: "fc2"
  param {
    lr_mult: 1
  }
  param {
    lr_mult: 2
  }
  inner_product_param {
    num_output: 1024
    weight_filler {
      type: "xavier"
    }
    bias_filler {
      type: "constant"
    }
  }
}
layer {
  name: "relu2"
  type: "ReLU"
  bottom: "fc2"
  top: "fc2"
}
layer {
  name: "drop2"
  type: "Dropout"
  bottom: "fc2"
  top: "fc2"
  dropout_param {
    dropout_ratio: 0.5
  }
}
layer {
  name: "fc3"
  type: "InnerProduct"
  bottom: "fc2"
  top: "fc3"
  param {
    lr_mult: 1
  }
  param {
    lr_mult: 2
  }
  inner_product_param {
    num_output: 200
    weight_filler {
      type: "xavier"
    }
    bias_filler {
      type: "constant"
    }
  }
}
layer {
  name: "loss"
  type: "SoftmaxWithLoss"
  bottom: "fc3"
  bottom: "label"
  top: "loss"
}
I0705 03:49:09.013664  8009 layer_factory.hpp:77] Creating layer data
I0705 03:49:09.013809  8009 db_lmdb.cpp:35] Opened lmdb /home/hadoop/VisionWorkspace/ActivityNet/new_lmdb/c3d_lmdb_4k_1k/train_c3d_lmdb
I0705 03:49:09.013861  8009 net.cpp:84] Creating Layer data
I0705 03:49:09.013888  8009 net.cpp:380] data -> data
I0705 03:49:09.013938  8009 net.cpp:380] data -> label
I0705 03:49:09.013957  8009 data_transformer.cpp:25] Loading mean file from: mean_c3d.binaryproto
I0705 03:49:09.041118  8009 data_layer.cpp:45] output data size: 64,500,1,1
I0705 03:49:09.042470  8009 net.cpp:122] Setting up data
I0705 03:49:09.042520  8009 net.cpp:129] Top shape: 64 500 1 1 (32000)
I0705 03:49:09.042554  8009 net.cpp:129] Top shape: 64 (64)
I0705 03:49:09.042560  8009 net.cpp:137] Memory required for data: 128256
I0705 03:49:09.042572  8009 layer_factory.hpp:77] Creating layer fc1
I0705 03:49:09.042601  8009 net.cpp:84] Creating Layer fc1
I0705 03:49:09.042609  8009 net.cpp:406] fc1 <- data
I0705 03:49:09.042628  8009 net.cpp:380] fc1 -> fc1
I0705 03:49:09.048483  8009 net.cpp:122] Setting up fc1
I0705 03:49:09.048532  8009 net.cpp:129] Top shape: 64 1024 (65536)
I0705 03:49:09.048542  8009 net.cpp:137] Memory required for data: 390400
I0705 03:49:09.048593  8009 layer_factory.hpp:77] Creating layer relu1
I0705 03:49:09.048648  8009 net.cpp:84] Creating Layer relu1
I0705 03:49:09.048660  8009 net.cpp:406] relu1 <- fc1
I0705 03:49:09.048668  8009 net.cpp:367] relu1 -> fc1 (in-place)
I0705 03:49:09.552978  8009 net.cpp:122] Setting up relu1
I0705 03:49:09.553022  8009 net.cpp:129] Top shape: 64 1024 (65536)
I0705 03:49:09.553030  8009 net.cpp:137] Memory required for data: 652544
I0705 03:49:09.553038  8009 layer_factory.hpp:77] Creating layer drop1
I0705 03:49:09.553053  8009 net.cpp:84] Creating Layer drop1
I0705 03:49:09.553061  8009 net.cpp:406] drop1 <- fc1
I0705 03:49:09.553071  8009 net.cpp:367] drop1 -> fc1 (in-place)
I0705 03:49:09.553148  8009 net.cpp:122] Setting up drop1
I0705 03:49:09.553167  8009 net.cpp:129] Top shape: 64 1024 (65536)
I0705 03:49:09.553174  8009 net.cpp:137] Memory required for data: 914688
I0705 03:49:09.553179  8009 layer_factory.hpp:77] Creating layer fc2
I0705 03:49:09.553194  8009 net.cpp:84] Creating Layer fc2
I0705 03:49:09.553200  8009 net.cpp:406] fc2 <- fc1
I0705 03:49:09.553208  8009 net.cpp:380] fc2 -> fc2
I0705 03:49:09.560493  8009 net.cpp:122] Setting up fc2
I0705 03:49:09.560524  8009 net.cpp:129] Top shape: 64 1024 (65536)
I0705 03:49:09.560540  8009 net.cpp:137] Memory required for data: 1176832
I0705 03:49:09.560556  8009 layer_factory.hpp:77] Creating layer relu2
I0705 03:49:09.560567  8009 net.cpp:84] Creating Layer relu2
I0705 03:49:09.560575  8009 net.cpp:406] relu2 <- fc2
I0705 03:49:09.560591  8009 net.cpp:367] relu2 -> fc2 (in-place)
I0705 03:49:09.560986  8009 net.cpp:122] Setting up relu2
I0705 03:49:09.560999  8009 net.cpp:129] Top shape: 64 1024 (65536)
I0705 03:49:09.561005  8009 net.cpp:137] Memory required for data: 1438976
I0705 03:49:09.561019  8009 layer_factory.hpp:77] Creating layer drop2
I0705 03:49:09.561028  8009 net.cpp:84] Creating Layer drop2
I0705 03:49:09.561033  8009 net.cpp:406] drop2 <- fc2
I0705 03:49:09.561041  8009 net.cpp:367] drop2 -> fc2 (in-place)
I0705 03:49:09.561086  8009 net.cpp:122] Setting up drop2
I0705 03:49:09.561096  8009 net.cpp:129] Top shape: 64 1024 (65536)
I0705 03:49:09.561102  8009 net.cpp:137] Memory required for data: 1701120
I0705 03:49:09.561108  8009 layer_factory.hpp:77] Creating layer fc3
I0705 03:49:09.561118  8009 net.cpp:84] Creating Layer fc3
I0705 03:49:09.561125  8009 net.cpp:406] fc3 <- fc2
I0705 03:49:09.561151  8009 net.cpp:380] fc3 -> fc3
I0705 03:49:09.562789  8009 net.cpp:122] Setting up fc3
I0705 03:49:09.562804  8009 net.cpp:129] Top shape: 64 200 (12800)
I0705 03:49:09.562809  8009 net.cpp:137] Memory required for data: 1752320
I0705 03:49:09.562829  8009 layer_factory.hpp:77] Creating layer loss
I0705 03:49:09.562844  8009 net.cpp:84] Creating Layer loss
I0705 03:49:09.562858  8009 net.cpp:406] loss <- fc3
I0705 03:49:09.562865  8009 net.cpp:406] loss <- label
I0705 03:49:09.562888  8009 net.cpp:380] loss -> loss
I0705 03:49:09.562906  8009 layer_factory.hpp:77] Creating layer loss
…
I0705 03:49:09.564270  8009 net.cpp:294] The NetState phase (1) differed from the phase (0) specified by a rule in layer data
I0705 03:49:09.564368  8009 net.cpp:51] Initializing net from parameters: 
name: "C3DNet"
state {
  phase: TEST
}
layer {
  name: "data"
  type: "Data"
  top: "data"
  top: "label"
  include {
    phase: TEST
  }
  transform_param {
    mirror: false
    mean_file: "mean_c3d.binaryproto"
  }
  data_param {
    source: "/home/hadoop/VisionWorkspace/ActivityNet/new_lmdb/c3d_lmdb_4k_1k/val_c3d_lmdb"
    batch_size: 50
    backend: LMDB
  }
}
layer {
  name: "fc1"
  type: "InnerProduct"
  bottom: "data"
  top: "fc1"
  param {
    lr_mult: 1
  }
  param {
    lr_mult: 2
    decay_mult: 0
  }
  inner_product_param {
    num_output: 1024
    weight_filler {
      type: "xavier"
    }
    bias_filler {
      type: "constant"
    }
  }
}
layer {
  name: "relu1"
  type: "ReLU"
  bottom: "fc1"
  top: "fc1"
}
layer {
  name: "drop1"
  type: "Dropout"
  bottom: "fc1"
  top: "fc1"
  dropout_param {
    dropout_ratio: 0.5
  }
}
layer {
  name: "fc2"
  type: "InnerProduct"
  bottom: "fc1"
  top: "fc2"
  param {
    lr_mult: 1
  }
  param {
    lr_mult: 2
  }
  inner_product_param {
    num_output: 1024
    weight_filler {
      type: "xavier"
    }
    bias_filler {
      type: "constant"
    }
  }
}
layer {
  name: "relu2"
  type: "ReLU"
  bottom: "fc2"
  top: "fc2"
}
layer {
  name: "drop2"
  type: "Dropout"
  bottom: "fc2"
  top: "fc2"
  dropout_param {
    dropout_ratio: 0.5
  }
}
layer {
  name: "fc3"
  type: "InnerProduct"
  bottom: "fc2"
  top: "fc3"
  param {
    lr_mult: 1
  }
  param {
    lr_mult: 2
  }
  inner_product_param {
    num_output: 200
    weight_filler {
      type: "xavier"
    }
    bias_filler {
      type: "constant"
    }
  }
}
layer {
  name: "accuracy"
  type: "Accuracy"
  bottom: "fc3"
  bottom: "label"
  top: "accuracy"
  include {
    phase: TEST
  }
}
layer {
  name: "loss"
  type: "SoftmaxWithLoss"
  bottom: "fc3"
  bottom: "label"
  top: "loss"
}
I0705 03:49:09.564445  8009 layer_factory.hpp:77] Creating layer data
I0705 03:49:09.564546  8009 db_lmdb.cpp:35] Opened lmdb /home/hadoop/VisionWorkspace/ActivityNet/new_lmdb/c3d_lmdb_4k_1k/val_c3d_lmdb
I0705 03:49:09.602179  8009 net.cpp:84] Creating Layer data
I0705 03:49:09.602222  8009 net.cpp:380] data -> data
I0705 03:49:09.602258  8009 net.cpp:380] data -> label
I0705 03:49:09.602274  8009 data_transformer.cpp:25] Loading mean file from: mean_c3d.binaryproto
I0705 03:49:09.602501  8009 data_layer.cpp:45] output data size: 50,500,1,1
I0705 03:49:09.603034  8009 net.cpp:122] Setting up data
I0705 03:49:09.603049  8009 net.cpp:129] Top shape: 50 500 1 1 (25000)
I0705 03:49:09.603058  8009 net.cpp:129] Top shape: 50 (50)
I0705 03:49:09.603063  8009 net.cpp:137] Memory required for data: 100200
I0705 03:49:09.603070  8009 layer_factory.hpp:77] Creating layer label_data_1_split
I0705 03:49:09.603085  8009 net.cpp:84] Creating Layer label_data_1_split
I0705 03:49:09.603099  8009 net.cpp:406] label_data_1_split <- label
I0705 03:49:09.603108  8009 net.cpp:380] label_data_1_split -> label_data_1_split_0
I0705 03:49:09.603155  8009 net.cpp:380] label_data_1_split -> label_data_1_split_1
I0705 03:49:09.603238  8009 net.cpp:122] Setting up label_data_1_split
I0705 03:49:09.603261  8009 net.cpp:129] Top shape: 50 (50)
I0705 03:49:09.603277  8009 net.cpp:129] Top shape: 50 (50)
I0705 03:49:09.603282  8009 net.cpp:137] Memory required for data: 100600
I0705 03:49:09.603288  8009 layer_factory.hpp:77] Creating layer fc1
I0705 03:49:09.603301  8009 net.cpp:84] Creating Layer fc1
I0705 03:49:09.603315  8009 net.cpp:406] fc1 <- data
I0705 03:49:09.603323  8009 net.cpp:380] fc1 -> fc1
I0705 03:49:09.607316  8009 net.cpp:122] Setting up fc1
I0705 03:49:09.607338  8009 net.cpp:129] Top shape: 50 1024 (51200)
I0705 03:49:09.607345  8009 net.cpp:137] Memory required for data: 305400
I0705 03:49:09.607360  8009 layer_factory.hpp:77] Creating layer relu1
I0705 03:49:09.607401  8009 net.cpp:84] Creating Layer relu1
I0705 03:49:09.607409  8009 net.cpp:406] relu1 <- fc1
I0705 03:49:09.607419  8009 net.cpp:367] relu1 -> fc1 (in-place)
I0705 03:49:09.607615  8009 net.cpp:122] Setting up relu1
I0705 03:49:09.607628  8009 net.cpp:129] Top shape: 50 1024 (51200)
I0705 03:49:09.607635  8009 net.cpp:137] Memory required for data: 510200
I0705 03:49:09.607640  8009 layer_factory.hpp:77] Creating layer drop1
I0705 03:49:09.607650  8009 net.cpp:84] Creating Layer drop1
I0705 03:49:09.607656  8009 net.cpp:406] drop1 <- fc1
I0705 03:49:09.607664  8009 net.cpp:367] drop1 -> fc1 (in-place)
I0705 03:49:09.607702  8009 net.cpp:122] Setting up drop1
I0705 03:49:09.607714  8009 net.cpp:129] Top shape: 50 1024 (51200)
I0705 03:49:09.607720  8009 net.cpp:137] Memory required for data: 715000
I0705 03:49:09.607727  8009 layer_factory.hpp:77] Creating layer fc2
I0705 03:49:09.607736  8009 net.cpp:84] Creating Layer fc2
I0705 03:49:09.607743  8009 net.cpp:406] fc2 <- fc1
I0705 03:49:09.607750  8009 net.cpp:380] fc2 -> fc2
I0705 03:49:09.615717  8009 net.cpp:122] Setting up fc2
I0705 03:49:09.615749  8009 net.cpp:129] Top shape: 50 1024 (51200)
I0705 03:49:09.615756  8009 net.cpp:137] Memory required for data: 919800
I0705 03:49:09.615773  8009 layer_factory.hpp:77] Creating layer relu2
I0705 03:49:09.615785  8009 net.cpp:84] Creating Layer relu2
I0705 03:49:09.615792  8009 net.cpp:406] relu2 <- fc2
I0705 03:49:09.615803  8009 net.cpp:367] relu2 -> fc2 (in-place)
I0705 03:49:09.616194  8009 net.cpp:122] Setting up relu2
I0705 03:49:09.616210  8009 net.cpp:129] Top shape: 50 1024 (51200)
I0705 03:49:09.616216  8009 net.cpp:137] Memory required for data: 1124600
I0705 03:49:09.616222  8009 layer_factory.hpp:77] Creating layer drop2
I0705 03:49:09.616232  8009 net.cpp:84] Creating Layer drop2
I0705 03:49:09.616240  8009 net.cpp:406] drop2 <- fc2
I0705 03:49:09.616246  8009 net.cpp:367] drop2 -> fc2 (in-place)
I0705 03:49:09.616279  8009 net.cpp:122] Setting up drop2
I0705 03:49:09.616291  8009 net.cpp:129] Top shape: 50 1024 (51200)
I0705 03:49:09.616297  8009 net.cpp:137] Memory required for data: 1329400
I0705 03:49:09.616303  8009 layer_factory.hpp:77] Creating layer fc3
I0705 03:49:09.616315  8009 net.cpp:84] Creating Layer fc3
I0705 03:49:09.616323  8009 net.cpp:406] fc3 <- fc2
I0705 03:49:09.616333  8009 net.cpp:380] fc3 -> fc3
I0705 03:49:09.618201  8009 net.cpp:122] Setting up fc3
I0705 03:49:09.618228  8009 net.cpp:129] Top shape: 50 200 (10000)
I0705 03:49:09.618235  8009 net.cpp:137] Memory required for data: 1369400
I0705 03:49:09.618250  8009 layer_factory.hpp:77] Creating layer fc3_fc3_0_split
I0705 03:49:09.618261  8009 net.cpp:84] Creating Layer fc3_fc3_0_split
I0705 03:49:09.618268  8009 net.cpp:406] fc3_fc3_0_split <- fc3
I0705 03:49:09.618278  8009 net.cpp:380] fc3_fc3_0_split -> fc3_fc3_0_split_0
I0705 03:49:09.618288  8009 net.cpp:380] fc3_fc3_0_split -> fc3_fc3_0_split_1
I0705 03:49:09.618331  8009 net.cpp:122] Setting up fc3_fc3_0_split
I0705 03:49:09.618343  8009 net.cpp:129] Top shape: 50 200 (10000)
I0705 03:49:09.618350  8009 net.cpp:129] Top shape: 50 200 (10000)
I0705 03:49:09.618356  8009 net.cpp:137] Memory required for data: 1449400
I0705 03:49:09.618361  8009 layer_factory.hpp:77] Creating layer accuracy
I0705 03:49:09.618376  8009 net.cpp:84] Creating Layer accuracy
I0705 03:49:09.618383  8009 net.cpp:406] accuracy <- fc3_fc3_0_split_0
I0705 03:49:09.618391  8009 net.cpp:406] accuracy <- label_data_1_split_0
I0705 03:49:09.618398  8009 net.cpp:380] accuracy -> accuracy
…
